backend/GANModel/gan_discriminator.pth (torch, 617260 bytes, 5 tensors)

model.0.weight f4 [512, 42]
000000 5a fd fe bd d4 5f f8 bd 6c 3c ce 3d a6 6f a5 be
       -0.12450667 -0.12127653 0.10070118 -0.32311743
000010 1b 2f 2b 3d 02 6d 97 bc 11 30 06 3e 4b 32 25 3d
       0.04179297 -0.018484596 0.13104273 0.040331166
000020 c3 07 d4 bd f4 e2 2a 3e b6 2c b4 3e 7d bb 82 bd
       -0.10353043 0.16688138 0.35190362 -0.06383417
000030 be 85 46 bd 63 88 82 bd 0f d4 ad 3d b2 ce 8f 3c
       -0.04846739 -0.0637367 0.084877126 0.017554615
000040 ab 2b 83 bd fe e5 fc bd dc ce c3 3d 92 4f c5 ba
       -0.064048134 -0.12348555 0.0956094 -0.0015053621
000050 b9 08 33 bd 40 ae fa 3c 38 6c a6 be 23 06 41 3e
       -0.04370949 0.030600667 -0.3250444 0.18849997
000060 e3 2e 8b 3e b0 2c e9 3b de 94 6f 3d 05 35 4b 3e
       0.2718421 0.007115923 0.05849158 0.19844444
000070 db 0a 9d 3c 4d 16 fb bd dd eb 54 be 4f 59 d8 3e
       0.019170215 -0.12260113 -0.207931 0.42255637
000080 ca 0d 70 bd 45 ec 09 be 3f ba ec bb f1 e6 7f 3e
       -0.0586069 -0.13469036 -0.0072243507 0.24990441
000090 b6 8d 97 bd 3a 34 eb 3b 8f 02 9f 3d 64 66 36 bd
       -0.07400076 0.0071778568 0.0776416 -0.04453124
0000a0 bc 48 19 be 6d 28 21 be a2 e1 30 3e 77 2b d2 bc
       -0.14969152 -0.15738077 0.17273572 -0.025655491
0000b0 68 6d a7 bb da 92 7d be 5e ef 6c 3d a0 6f 93 36
       -0.005109478 -0.2476305 0.057845466 4.3939363e-06
0000c0 d6 33 13 3e 22 a3 be bd 17 78 4e 3e 37 20 25 3d
       0.14375243 -0.09308459 0.20162998 0.040313926
0000d0 2d 06 65 be 6a 18 ca be 9c 7a ea bb 18 59 68 3d
       -0.22365637 -0.3947175 -0.0071557295 0.05672559
0000e0 40 3c a6 3d 5d 19 54 3e 89 97 ac bd 53 39 81 3d
       0.081169605 0.207128 -0.084273405 0.06309762
0000f0 c4 13 fc bd e9 cd 96 3c 97 4d 7a bd 1b 95 98 bd
       -0.123084575 0.018408732 -0.06110915 -0.074503146
000100 40 f6 07 bd 82 16 fd bc 88 5e 20 be 71 df b7 3d
       -0.033193827 -0.030894522 -0.15661061 0.08978165
000110 8f b7 2e bd a4 f5 87 3e ad 44 a9 3d c2 80 7a bd
       -0.042655524 0.26554596 0.08265052 -0.06115795
000120 96 d5 e1 bd f0 b3 ee 3d f3 4c 41 be 10 29 47 3f
       -0.110270664 0.11655414 -0.1887701 0.7779703
000130 05 54 5a bf 35 79 5a be 73 1b 4d 3d 91 c2 1b 3d
       -0.85284454 -0.213353 0.050075006 0.03802735
000140 2a 80 0c 3d 39 40 49 3f 4c 2a dc be 68 e6 ff 3c
       0.034301914 0.7861362 -0.4300102 0.031237796
000150 58 5a 5c be 36 49 9c 3e ff 02 86 3f e1 a9 96 bf
       -0.21518838 0.30524606 1.0469664 -1.1770593
000160 ca fd aa 3c 3f c7 d8 bb 16 f8 47 be 34 f1 e7 3c
       0.02087297 -0.006615549 -0.19528231 0.028313257
000170 e5 86 09 be 72 de 44 be f5 d2 21 bd 9b 21 23 be
       -0.13430364 -0.19225481 -0.039507825 -0.15930788
000180 d1 0a 4e 3e 16 fe 0e be 70 71 07 be 88 c8 6e 3d
       0.20121314 -0.13964114 -0.13226867 0.05829671
000190 d4 c5 1c be 5f 9f 45 3c 8a 1c 01 bd 1e 05 87 be
       -0.1530984 0.012061923 -0.031521358 -0.26371092
0001a0 f5 d0 7b bc 09 72 cd bc bd 60 9c be c0 7b b3 bc
       -0.015369643 -0.02507879 -0.30542555 -0.021909595
0001b0 06 75 43 3d ae 27 df 3d 13 8d 3b 3e b8 1d 9d 3f
       0.047719024 0.1089624 0.18315534 1.2274694
0001c0 f6 78 f0 bc 63 72 83 be 33 cf 15 3e 95 9a 97 3e
       -0.029354554 -0.25673208 0.14629821 0.29610124
0001d0 30 52 c2 bc ea c9 49 3e c7 be a8 bd 49 64 8a be
       -0.02372083 0.1970593 -0.08239513 -0.27029637
0001e0 b8 36 5c be 33 57 e1 bc dc f8 10 3e f3 77 9f bc
       -0.21505249 -0.0275074 0.14157432 -0.019466376
0001f0 06 63 1f bc 30 89 8f be 03 86 d4 3d 75 34 55 3f
       -0.009728199 -0.28034353 0.10377123 0.8328317
000200 7f 2b b6 3e f6 ba 01 3f 85 04 26 3e ff ed b9 3d
       0.3558006 0.50675905 0.16212662 0.09078597
000210 f2 5c 3b 3e 35 21 aa bc fb 3e cc 3d 62 bd 2b 3e
       0.18297175 -0.020767787 0.0997295 0.16771463
000220 f5 a4 ad 3d f1 b2 2b be a4 72 0e 3f fd ac 83 bd
       0.08478729 -0.1676748 0.5564368 -0.06429479
000230 cb c8 5f 3e 51 13 dc 3d 5f 75 30 3e b5 75 73 3d
       0.2185394 0.10745872 0.17232274 0.059438426
000240 07 7c 1d 3e 16 9f 2a be 72 34 cd bc 69 72 dd bb
       0.15379344 -0.16662249 -0.025049422 -0.0067580235
000250 5e 99 fc 3d 82 cb 93 be ad 2f ba bd d5 1c 6c 3d
       0.1233394 -0.28866202 -0.09091125 0.057644684
000260 fb 23 52 3d f8 f1 68 3b e5 c2 e6 3d a0 7a cd 3d
       0.051303845 0.0035544615 0.11267642 0.100331545
000270 aa 6a cf be ec b4 db 3e 36 80 2d ba 20 59 ae be
       -0.40511066 0.4291147 -0.0006618531 -0.34052372
000280 cb d4 09 bf e0 e2 56 bf e1 d6 11 3a e2 34 31 be
       -0.5384032 -0.83939934 0.00055633305 -0.1730533
000290 0b 6e 9a 3e 38 bd a8 3e 81 b3 05 3f 1e 5e 34 3d
       0.3016208 0.32956862 0.52227026 0.04403507
0002a0 e2 af 28 be ac d0 74 be 64 87 aa ba 8c 46 0f 3e
       -0.16473344 -0.23907727 -0.001301032 0.13991755
0002b0 41 93 00 be ab 55 26 bc 20 e0 25 be 7f fa dd 3d
       -0.12556173 -0.010152261 -0.16198778 0.10838794
0002c0 ae 9b 6e 3e 94 db bb 3d e4 15 35 3d 66 09 61 bd
       0.23301575 0.091727406 0.04421033 -0.054940604
0002d0 2d 70 25 be ca 09 82 be e8 41 8e 3d 19 b5 30 bd
       -0.16156073 -0.25398093 0.06946164 -0.04314146
0002e0 2b fe 49 3d 26 95 e8 3d e7 21 96 bc cc 27 3d be
       0.04931466 0.11356573 -0.018326713 -0.18472213
0002f0 a6 29 d1 3d eb 7c 82 3c df 0e d2 3d da e0 51 3e
       0.10213022 0.015928706 0.10256743 0.2049593
000300 58 19 82 3e f2 06 eb 3d 67 40 71 3e 43 59 81 be
       0.2540996 0.11475934 0.23559724 -0.25263414
000310 63 0f d8 bc 7c 63 51 3d 53 32 36 3e de ad 44 bf
       -0.026374524 0.051120266 0.17792635 -0.768278
000320 8c da fc 3b e1 68 26 bf 8d 9a 4d 3e 45 9e 10 be
       0.0077164825 -0.6500378 0.20078488 -0.14122875
000330 07 a3 64 bd a9 31 06 be 12 e6 d2 3e 8d 13 18 be
       -0.055819537 -0.13104881 0.41191155 -0.14851208
000340 eb 5b f5 3e 64 7c d4 3d 82 1d 59 bd 77 d1 d1 3e
       0.4792169 0.10375288 -0.053006656 0.40980121
000350 4f ac 4c 3c 15 bc 39 3f 5f 25 4b 3e b5 34 ab bd
       0.012492253 0.72552615 0.19838475 -0.083596624
000360 ca 73 7a 3d 9a af 8d bd 0c 74 fc 3c 3c ed 2b bf
       0.06114558 -0.06918259 0.030817054 -0.67158866
000370 51 13 05 3e 77 b8 f6 3d 63 14 68 be ca ae 0d bb
       0.1299565 0.120469026 -0.22664027 -0.0021619075
000380 d0 49 a9 3e e2 2c 52 3e bc 9b 91 bd 56 92 26 3e
       0.33064127 0.20524934 -0.07109782 0.1626676
000390 96 ad 9c 3d 2a de 01 3d 05 3b 11 bc ec a5 e8 3c
       0.076502964 0.031706013 -0.008864169 0.02839943
0003a0 de c8 e1 bd 2f be 43 bc ba 2d b2 bd 71 29 3e be
       -0.110246405 -0.011947199 -0.08700128 -0.18570496
0003b0 c0 52 9f be 86 b3 01 3d d9 c6 1a 3c 30 48 dc 3c
       -0.3111782 0.031665348 0.009446823 0.02688989
0003c0 53 6d 98 be 60 dc 81 3e fb 26 d8 3c ed e6 57 3e
       -0.29770908 0.25363445 0.026385775 0.21084185
0003d0 7b 30 5b bd b0 3d 9e bd 2e 35 89 3d 28 66 88 3e
       -0.05351303 -0.0772661 0.06699596 0.2664044
0003e0 1d 9e e2 bd 41 73 8e 3d 23 e3 a8 3e b1 10 18 3e
       -0.11065314 0.06955577 0.32985792 0.14850117
0003f0 af c4 21 3e 37 b1 19 be 56 14 35 3e 15 c3 b8 bd
       0.15797685 -0.15009008 0.17683539 -0.09021584

model.0.bias f4 [512]
000000 6d a0 35 3d 5e 06 33 bc 44 33 3b be aa 8d 6d 3e
       0.044342447 -0.010926811 -0.18281275 0.23198572
000010 35 92 72 bc 76 c5 3c 3e 13 fa 68 3d 9f fc 1f be
       -0.014805366 0.184347 0.056879114 -0.15623711
000020 0e 84 98 be 35 bf a6 3e 0e 19 f2 bd 70 c4 a8 bb
       -0.2978825 0.32567754 -0.11821185 -0.0051503703
000030 eb 99 e4 3d 2d 23 5e 3d a8 eb 06 be 7b 96 3d bd
       0.1116217 0.054232765 -0.13175833 -0.046286087
000040 84 1d b8 3d 7e 94 09 bc 6c 64 21 be b4 0d 26 bd
       0.08990005 -0.00839722 -0.15760964 -0.040540412
000050 8f 78 2e 3e a3 5c 85 bd da 09 46 be b3 90 92 be
       0.17038177 -0.0651181 -0.19339696 -0.28626022
000060 12 e6 4b be a4 11 cb 3d c3 da 43 be e1 e1 65 3d
       -0.19911984 0.09915474 -0.1912642 0.056123618
000070 81 cd 9c bb c0 91 ee 3d 81 59 bd 3d ce 6c 10 3e
       -0.00478524 0.11648893 0.09245587 0.14104006
000080 c6 9a 17 3e c4 cf 21 be 8c 2b a3 3e 6e ba 02 3e
       0.14805135 -0.15801913 0.3186916 0.1276643
000090 cb c4 11 3d 0a 94 54 bd 84 59 59 be 83 6b 52 3e
       0.035588067 -0.051898994 -0.21225554 0.20548825
0000a0 33 bb c8 3c 54 ca 97 3d 8a 76 59 be 07 ec 28 be
       0.024503326 0.07411638 -0.21236625 -0.16496287
0000b0 b1 12 53 be b1 fe 55 be c1 f8 7a 3e cd b6 39 be
       -0.20612599 -0.20897938 0.24508955 -0.18136139
0000c0 19 e8 0c be 0e 29 98 be df e2 4c 3e 7e 38 52 3e
       -0.13760413 -0.29718822 0.2000842 0.20529363
0000d0 ec 7a ac be 8d 6d 20 3e 24 d5 10 3e 55 c9 eb bd
       -0.33687532 0.1566679 0.14143807 -0.115130104
0000e0 02 22 16 bd 33 36 1b 3e 3f 07 bf bd d9 fa db 3d
       -0.036653526 0.15157394 -0.09327554 0.10741205
0000f0 4f 1b 8d 3d 56 6a cc 3c 59 ce 05 3e 1e 79 75 3d
       0.06889974 0.024953049 0.13066997 0.05992996
000100 0b b3 e7 bd 05 5b 96 3d d6 d8 01 3e 81 b1 75 3e
       -0.113134466 0.07341579 0.12680373 0.23993494
000110 57 29 7c bd e9 c9 47 3e a3 9b 68 3d 29 04 c0 be
       -0.061562862 0.19510616 0.05678905 -0.37503174
000120 dd 02 9b bc 4f 0a ef bd 69 8e 46 be 0c 4d 04 3e
       -0.018922264 -0.11671888 -0.19390263 0.12920016
000130 b6 c2 56 be 42 4b f2 bd 16 35 17 be 17 7a 8b be
       -0.20972714 -0.118307605 -0.14766344 -0.27241585
000140 34 eb 04 3e 6e 85 08 be 7c ad 95 be 97 43 d0 3d
       0.12980348 -0.1333215 -0.2923392 0.10169142
000150 67 cb 3a be 01 a2 61 bd ed 5a b8 3c ad d1 66 3e
       -0.18241654 -0.05508614 0.022504294 0.22540922
000160 a5 4e 78 3e d1 b4 0d 3c 9c 57 a6 bd 73 2e 0d 3e
       0.2424875 0.008649067 -0.08122179 0.1378725
000170 89 20 a1 3e d7 02 1e be 4a bf 99 bd 87 52 0d 3e
       0.31470135 -0.15430771 -0.075071886 0.13801013
000180 92 30 ca 3d 0b 22 6c 3e 2b 5c 79 be 2a 96 ea 3d
       0.09872545 0.23059861 -0.24351566 0.11454423
000190 1a 06 02 be dc 67 59 be 6f 41 5c 3e ed 30 e5 3d
       -0.1269764 -0.21231025 0.21509336 0.111909725
0001a0 83 93 ac 3d 5b 5e a0 3d 5d ef f9 bd 82 d7 9b be
       0.08426573 0.07830497 -0.12203858 -0.30437857
0001b0 cf 16 cd 3d 9b 04 7c bd 7b b7 33 3e c5 f4 8e 3d
       0.10014116 -0.06152783 0.17550461 0.0698028
0001c0 fc a6 33 be c0 d3 72 bd 0e c4 b6 be 4e a1 84 be
       -0.17544168 -0.05928397 -0.35696453 -0.25904316
0001d0 09 1b 0b 3e 76 ad 36 bd 92 d4 cc 3c 28 6e 81 be
       0.13584532 -0.04459902 0.025003705 -0.25279355
0001e0 aa de 90 bd ce b6 33 3e 13 06 29 3e 0f fe 64 be
       -0.0707372 0.17550203 0.16506223 -0.2236254
0001f0 10 b8 96 be 1d a9 91 be 96 c6 d5 3c 9e 76 85 be
       -0.29437304 -0.28449336 0.02609567 -0.2606706
000200 92 f3 83 3e 1f 98 1b be 79 2e 7f be 51 d2 2f be
       0.25771767 -0.15194748 -0.24920072 -0.17170073
000210 d1 22 31 3e d5 a7 9d bd e0 ae 35 3d 7e c5 2b be
       0.17298438 -0.07698027 0.044356227 -0.16774556
000220 25 19 51 be 81 f2 07 3e b0 ab c0 3a 5f 34 7b be
       -0.20419748 0.13276102 0.0014699604 -0.24531697
000230 d4 7b 8c bd 32 61 84 be 03 9d c1 bd 8f 07 62 3e
       -0.06859556 -0.25855404 -0.09453776 0.22073196
000240 9a 5a b3 3d 12 62 7d 3e b5 56 44 3e 69 ed d4 bd
       0.08757515 0.24744442 0.19173701 -0.10396845
000250 eb a9 89 bd 93 d9 cc bd ee d9 b8 3d 79 d0 7a be
       -0.067218624 -0.100024365 0.09025942 -0.24493589
000260 c4 20 a1 3d 03 c6 d1 3b 03 af 5d be b9 8a b5 3d
       0.07867578 0.0064017787 -0.21648793 0.0886435
000270 c6 e4 30 3e 91 9b 9a 3d 5e 16 75 be 9b 61 7f be
       0.1727477 0.07549203 -0.23934314 -0.24939577
000280 bb fb cb 39 8b ae dd bd 77 62 23 3d aa 08 95 3e
       0.0003890673 -0.10824307 0.039888825 0.29108173
000290 ee 5b a9 be bd e2 94 bd 46 ba df bd 0d f5 cb 3d
       -0.3307795 -0.072698094 -0.10924201 0.09958849
0002a0 77 40 7c be e9 1e 6d 3d 30 22 f0 3c 2d 1f c8 bd
       -0.24633966 0.057890806 0.029313177 -0.09771571
0002b0 5c ed b5 3d 58 08 d2 bd be 7c c5 bd 6d e4 7f 3e
       0.08883163 -0.10255498 -0.09642933 0.24989481
0002c0 df e9 7c be be f8 82 3d b7 44 57 3e fe f5 65 3e
       -0.2469859 0.063951 0.21022306 0.2245712
0002d0 f3 68 16 be d1 4f 2d 3e e8 07 2f be 44 77 2c be
       -0.14688472 0.16924979 -0.1709286 -0.16842371
0002e0 fd ad 7a bd 56 aa a6 3e 82 39 07 3e 6a 48 10 be
       -0.061201084 0.3255183 0.13205531 -0.14090124
0002f0 65 fe 9d 3e 01 c0 53 bd 35 df bd 3d bb 09 79 be
       0.3085815 -0.05169678 0.09271089 -0.24320118
000300 2a 48 9b be 58 48 03 3e cf 2b 2b 3c 9d 86 af be
       -0.30328494 0.12820566 0.0104474565 -0.3428239
000310 f2 78 29 be f3 22 99 be 97 5b c2 3c 94 c2 55 3e
       -0.16550043 -0.29909477 0.023725314 0.20875007
000320 90 51 50 bd e3 66 84 3d c4 99 49 be 0a 0e 80 be
       -0.050859034 0.064649366 -0.19687563 -0.2501071
000330 16 a3 9a 3c 30 d9 8c bc 85 f8 ff bc 92 b8 08 3e
       0.018876594 -0.017193407 -0.031246433 0.13351658
000340 d3 4f 99 3d 2d ac 22 be 2c 1b 5d be e0 d3 9b 3c
       0.074859284 -0.15885992 -0.21592396 0.019021928
000350 94 3e 81 3e 65 d5 2e 3d d3 b8 2c be fb c9 55 be
       0.25243056 0.042683978 -0.1686738 -0.2087783
000360 43 26 ca 3d 75 fc 59 be ae 46 bd be 39 95 89 bd
       0.09870579 -0.21287711 -0.36967987 -0.06717915
000370 4d 24 96 3d 18 af 7b be 11 f8 03 be 57 00 03 3e
       0.073311426 -0.24578512 -0.12887599 0.12793098
000380 9d d1 fc bd 45 41 cc bd b0 04 b5 3d 5e 04 32 3e
       -0.12344668 -0.09973387 0.08838785 0.17384478
000390 15 ce cb bd 41 10 52 3e a1 c7 25 be d3 88 6f 3c
       -0.099514164 0.20514013 -0.16189434 0.014620024
0003a0 a0 44 59 3d d1 b3 45 bc bb b1 68 be a1 b2 86 be
       0.05304396 -0.012066797 -0.22724049 -0.26308158
0003b0 5c 6b 9d 3c 3e bb 1b 3e 15 f0 5e 3d 37 76 21 3c
       0.019216232 0.15208146 0.05442818 0.009854845
0003c0 bc 77 8b bd 1c 31 8b 3e 29 0e 83 3e 51 b6 5d 3e
       -0.06809947 0.27185905 0.2559674 0.2165158
0003d0 21 70 a3 3d 17 23 78 be cb 89 68 be bc 97 2c be
       0.07980371 -0.24232136 -0.22708814 -0.16854757
0003e0 96 56 56 be bb fb 9b 3c cf 40 46 be 9d d6 da 3d
       -0.20931467 0.019040933 -0.1936066 0.106854655
0003f0 c7 65 a9 bd 18 55 01 3e 82 38 76 be c1 bb 4b 3c
       -0.082713656 0.12630117 -0.24044994 0.012434901

model.2.weight f4 [256, 512]
000000 0a b7 a3 3c 84 32 76 be 29 8a 34 be 83 a2 4c 3e
       0.01998474 -0.24042708 -0.17630829 0.19983868
000010 05 b8 78 bd 30 79 75 bc e6 3b 54 3e 38 96 9d bd
       -0.06072237 -0.014982507 0.20725974 -0.076946676
000020 70 81 46 3e b3 e7 c6 be f4 b9 25 3e 86 78 15 3f
       0.19385314 -0.38848647 0.16184217 0.5838703
000030 2c 08 29 3b fb 42 43 3f 9e 63 e9 bd a5 fd 6c be
       0.0025792224 0.7627408 -0.113959536 -0.23143633
000040 21 0b 3a bd 32 b7 13 be d9 e7 31 3f 3a 09 8c bd
       -0.04542077 -0.14425352 0.69494396 -0.06837697
000050 a2 98 a6 3d b4 e2 dc be 7b 26 27 3f 0b a9 ff 3b
       0.08134581 -0.4314171 0.6529309 0.007802134
000060 15 8d 86 be 24 7b c3 bc c4 61 99 be 81 8a 7e 3e
       -0.26279512 -0.023862429 -0.29957402 0.24857523
000070 fd 37 04 bd fc 26 0a 3e dd fa 38 bd 32 ff 05 bd
       -0.032279957 0.13491434 -0.045161117 -0.032714076
000080 d9 d6 0b 3d 0e 05 60 bd 60 b5 98 3e f2 e6 56 be
       0.03414044 -0.05469232 0.29825878 -0.20986536
000090 e1 61 13 3e ec bb 2c be 3a 39 c1 3d 77 c0 7c 3d
       0.14392807 -0.16868562 0.09434743 0.061706986
0000a0 0e 27 d6 bd 9b 1c 1a be dd 7f 3c bf 48 c3 89 3e
       -0.10456668 -0.15049975 -0.73632604 0.269068
0000b0 7b dc 23 3e cf 41 cc 3e bf db c0 3e 5f f6 02 3f
       0.16002075 0.39893958 0.37667653 0.5115718
0000c0 a2 ac 64 bd 37 07 0f 3e 74 2e d0 bd d5 db d1 be
       -0.055828698 0.13967596 -0.1016511 -0.4098803
0000d0 d9 a0 8c 3e 2f ac bf 3d 2f e2 85 bc ef 94 2f 3d
       0.27466467 0.09359013 -0.016343204 0.042866644
0000e0 c6 c6 18 bd bb 2b f8 3e 95 ae 81 3d 3b f0 cb bd
       -0.03729894 0.48470864 0.06332127 -0.0995793
0000f0 dd 06 04 3e e4 ca e1 3d 73 37 de be 9b 87 38 3d
       0.12893243 0.110250264 -0.4340168 0.0450512
000100 3d 3e b6 be 5e fb 34 bc 5b 07 01 3e ba 02 86 3d
       -0.3559436 -0.011046259 0.12600462 0.06543489
000110 2f 7e b8 3e 36 17 a8 3e e2 63 1f bf c6 e6 a8 3e
       0.3603377 0.3283021 -0.62261784 0.32988566
000120 3c b5 82 bd f3 e8 4c bd b3 ab 41 3e d3 22 d1 be
       -0.06382224 -0.050026845 0.18913154 -0.4084688
000130 55 d0 6c 3e ad eb b3 3d ea e7 0c be 6f 7a 43 be
       0.23126347 0.08785186 -0.13760343 -0.19089673
000140 b1 c1 48 3d 64 9b 03 3e 35 8a af 3b 28 15 19 3e
       0.049012844 0.12852246 0.0053570517 0.14949477
000150 cb c5 89 be c4 a8 c0 bd 82 b6 c6 bc 52 ab 2d 3e
       -0.26908717 -0.094071895 -0.024256948 0.16959885
000160 0f 50 c8 3e d3 91 ed 3e 0f 7a 93 bd 72 01 e1 bc
       0.3912358 0.46400318 -0.07201015 -0.02746651
000170 f2 23 18 3e b0 6a 2c 3e c1 17 23 bd 99 bb 12 be
       0.14857462 0.16837573 -0.039817575 -0.14329375
000180 ea 0d 2c 3e e4 1d 3f 3d ce 63 08 3d a2 bf af 3e
       0.16802183 0.046659365 0.033298306 0.34325892
000190 1c 01 a1 bd f7 a7 19 3f c6 b3 88 3e 2f 99 27 3e
       -0.0786154 0.6002192 0.26699656 0.16367029
0001a0 0f 14 31 3e 24 44 8b 3d 1d ca c5 3e 52 32 b3 3d
       0.17292808 0.06800106 0.38630763 0.08749832
0001b0 da b3 07 be 59 bf b3 3e 29 38 3e bd d2 d4 0d bf
       -0.13252202 0.35106924 -0.046440277 -0.55402863
0001c0 f8 ee e0 3c 48 44 83 3b b0 0e 96 be 7d fb 08 be
       0.0274577 0.0040059425 -0.2930808 -0.13377185
0001d0 d3 d5 1e be 16 52 9e bd 3d b2 39 3d 85 ad 52 3e
       -0.15511255 -0.077305004 0.045335997 0.20574005
0001e0 99 58 72 be f0 b9 a1 be 76 5c 0d 3d fc d9 34 3e
       -0.2366661 -0.31587172 0.034512006 0.1766128
0001f0 e4 e2 25 be 33 89 58 3e 3a 2e 8f 3e 15 cd 10 be
       -0.16199833 0.21146087 0.27964956 -0.14140733
000200 aa 8d 37 3e b4 0a ba 3d 6b 67 b0 3e 11 75 d3 3d
       0.17925134 0.09084073 0.34453902 0.10325063
000210 b9 c3 46 bc a5 b7 38 be 1c cb fb bd 5a b6 34 be
       -0.012131625 -0.18038805 -0.122945994 -0.17647687
000220 83 2f 49 3c 20 7b 42 3d e2 46 91 bd 8d 34 ad 3e
       0.012279394 0.047480702 -0.07093598 0.33829156
000230 4e 60 b2 3d ce 92 44 3c 8b 60 a4 3e 98 09 c2 3e
       0.08709775 0.011997892 0.32104906 0.37897944
000240 3b 0a 4d bd 41 7c 40 3e fe 55 e2 3d 15 b0 32 be
       -0.050058585 0.18797399 0.11051558 -0.17449982
000250 b4 c6 ac bc 57 73 27 be 5e 72 00 be 7a 46 f5 3b
       -0.021090843 -0.16352592 -0.12543628 0.007485208
000260 9f 9e a1 bd 21 95 5d be 1f 96 1b be d7 a0 d4 be
       -0.07891583 -0.2163892 -0.15193985 -0.4152896
000270 f6 e9 8d 3e b1 c1 0c bd da b5 c5 bd ea 91 53 bd
       0.2771756 -0.034364406 -0.09653826 -0.051652826
000280 c6 f3 57 3c 5e 49 ba bc 74 65 6e be 7a 7c 0b 3e
       0.013180679 -0.022740062 -0.23280889 0.13621703
000290 29 7a 9e 3d cf da b4 bd e6 4e d2 bd d6 d2 10 be
       0.07738144 -0.08830797 -0.10268955 -0.14142928
0002a0 1d e2 99 bc 1d dd d8 3c d5 9a 8c be f1 38 21 3e
       -0.018784577 0.026472623 -0.27461877 0.15744378
0002b0 47 89 af be 16 57 09 3d d9 95 d1 bd 0e c7 4d 3e
       -0.34284422 0.033530317 -0.10233659 0.20095465
0002c0 a2 12 8b 3e 6a 44 9f bb 23 66 bb 3d f9 c3 17 3f
       0.27162653 -0.0048604505 0.091503404 0.59283406
0002d0 e4 ca 9f 3e 76 f4 84 3e 89 0e c5 3c 2e c3 ab 3d
       0.3120948 0.2596776 0.024054782 0.08386837
0002e0 c1 b1 69 3d d6 58 0e be f4 80 2e bd 9a bb 98 bd
       0.057054285 -0.13901076 -0.042603448 -0.07457657
0002f0 87 34 86 3e 6f 24 39 be 6e 32 a2 3e a6 ca 04 be
       0.2621195 -0.18080305 0.316791 -0.12967929
000300 6b 2b 78 3d f7 ed 1c 3e 26 cd 85 be 9d 50 a9 be
       0.06058828 0.15325151 -0.26133078 -0.33069316
000310 6c 03 38 3f fc de 56 3e aa 88 d2 3d aa 9b 9d 3d
       0.7188022 0.209835 0.10279973 0.07695706
000320 34 3d 41 3d 47 6b 0b 3f cf d3 3c 3e 1d 33 ca 3d
       0.04717751 0.5446057 0.18440174 0.0987303
000330 3a 7d c7 3e ef 60 7b 3d 55 57 a3 3e fc de d0 3d
       0.38962728 0.06137174 0.31902567 0.10198781
000340 39 b6 1b be b9 28 77 be 8c 3e 94 3e 1a 68 a9 3e
       -0.15206231 -0.24136628 0.2895397 0.33087236
000350 13 55 b2 be 56 4d 14 be cc 11 c8 bd 9c 1c 8b be
       -0.3483053 -0.14482626 -0.097690195 -0.27170265
000360 82 4f 93 be d6 1f 7d 3e c2 28 18 3e 4f 4d e8 3d
       -0.28771597 0.24719176 0.14859298 0.113428704
000370 9f c8 99 bd 4b 4b 08 3e fe 1c 02 be 11 35 60 3e
       -0.075089686 0.13309972 -0.12706372 0.21895243
000380 b8 b5 ff 3d 29 0b f0 bd 57 f0 94 3e 05 cd 40 3e
       0.12485832 -0.11720879 0.29089615 0.18828209
000390 11 01 89 3e b6 f9 da bd 63 94 59 3c 8e f9 63 3c
       0.26758626 -0.1069216 0.013280007 0.013914479
0003a0 a7 3c e2 3e a5 70 c8 3e 93 a3 48 3d 43 6a 04 3e
       0.441869 0.3914844 0.04898412 0.1293116
0003b0 13 c6 0c be 4c 35 67 be 45 25 80 bd 74 43 ee bd
       -0.13747434 -0.22578925 -0.062571086 -0.116339594
0003c0 33 af 09 be aa bc e6 be 11 6c b6 3d fa 14 13 3c
       -0.1344574 -0.45065814 0.08907331 0.008977169
0003d0 d2 c8 bc bd 4b 10 bc 3d f8 42 58 3e 7f dc 6f be
       -0.09217991 0.09182795 0.21119297 -0.23423956
0003e0 b6 7c 04 bd d3 a4 66 3d 5c 99 28 3d 9c 88 a3 be
       -0.032345496 0.056309532 0.04116188 -0.31940162
0003f0 62 24 04 3e ba 3f 97 3e 27 62 6a be 88 02 fb 3e
       0.12904504 0.29540807 -0.22889005 0.4902537

model.2.bias f4 [256]
000000 c0 d2 f3 3d d3 8f 99 be fd d8 b9 be eb bc b2 3d
       0.11905432 -0.29992542 -0.3629836 0.087274395
000010 c0 c9 96 be 8b d0 8e be a8 31 3f be 17 d8 8a be
       -0.29450798 -0.2789348 -0.18671286 -0.27117988
000020 40 1f 24 be bf a9 9e be 21 7f 56 bc f0 3b 5c be
       -0.16027546 -0.3098888 -0.013091833 -0.2150724
000030 29 eb 26 3e 7b ac a8 be e5 7e a1 bd da ae 22 be
       0.16300644 -0.32944092 -0.07885531 -0.15887013
000040 e0 9d 25 be e8 61 84 3d c6 fd 8a be f7 3f 98 be
       -0.16173506 0.06463987 -0.2714674 -0.297363
000050 9f a8 e2 bd 2d c2 a7 be b0 60 9c bd 5e ea 30 be
       -0.11067318 -0.32765332 -0.07635629 -0.17276904
000060 db 10 4a 3c e0 f5 c4 bd 1d fc ac be c4 e5 25 be
       0.01233312 -0.096172094 -0.33786097 -0.1620093
000070 9d 8d 55 3c 1a 67 a2 be df 4c 57 3d 6e e6 af be
       0.0130342515 -0.31719285 0.052563544 -0.3435549
000080 7c 18 3b be 93 64 99 be 2e f6 2e be 27 05 35 3d
       -0.18271059 -0.29959545 -0.17086098 0.044194367
000090 a5 0d 96 3e 19 ad da be 49 3b ae bd e9 88 b0 be
       0.29307285 -0.42710188 -0.085074015 -0.34479454
0000a0 a6 cd f4 bd f6 ba 88 3d 13 5c dc bc fa 3f a1 bd
       -0.11953287 0.06676285 -0.026899373 -0.07873531
0000b0 61 43 07 bf 9d 8d ef bd 2e 7d 5c be 55 6e ea bd
       -0.5283719 -0.116969325 -0.21532127 -0.114468254
0000c0 0e 62 b4 be b8 fe 43 3e 03 ea 0e bf cd 1f 4f 3d
       -0.3523106 0.19140136 -0.55825824 0.050567437
0000d0 44 31 85 3e af a9 06 bd 45 a2 4f be 2c 11 73 be
       0.2601415 -0.032876667 -0.20276745 -0.2373702
0000e0 dc 44 17 be ec c5 4b bd ed cf 9c be c3 5b 19 be
       -0.14772362 -0.0497493 -0.30627385 -0.1497641
0000f0 c6 6e 2a be b4 5b 93 3d f4 ba 47 3e 95 a9 d8 3d
       -0.16643819 0.07195225 0.1950491 0.1057922
000100 18 57 7f be e4 26 2a be 20 8d 66 3e 88 72 c0 bd
       -0.24935567 -0.16616398 0.22514772 -0.09396845
000110 aa df 6a 3c 79 95 37 be 2e 82 03 bf 9e b2 e5 3d
       0.014335552 -0.17928113 -0.51370513 0.11215709
000120 57 42 6b be 3b e1 94 be c5 dc cd bc 39 8d 8d be
       -0.22974525 -0.29078087 -0.025129685 -0.27646807
000130 cd 6b 17 bd 10 bf 67 be 54 30 b5 3d 90 08 9b be
       -0.03696804 -0.22631478 0.088471085 -0.3027997
000140 9e ec 81 be 0e 7a 30 3e 91 cc 6d bd dd 7d 46 bd
       -0.25375837 0.1723406 -0.058056418 -0.048459876
000150 01 15 7e 3e 2b 62 37 3e ba c0 5c bd 85 78 0c be
       0.248127 0.17908542 -0.053894736 -0.1371785
000160 64 77 36 3d f3 d4 8d 3d ab da 99 3d bc 1d 3d 3d
       0.044547454 0.069253825 0.07512411 0.046170935
000170 87 99 2d be ed a1 36 3d 62 34 c9 be e0 ac 0c 3e
       -0.16953097 0.04458802 -0.39297777 0.13737822
000180 f9 cb 2a 3e b2 63 a0 be 12 0a 02 3e 31 86 c1 bd
       0.16679372 -0.3132606 0.12699154 -0.09449423
000190 44 a4 c5 be dd 56 c5 be 01 89 b4 be d8 21 8a be
       -0.38601887 -0.38542834 -0.35260776 -0.26978946
0001a0 68 b7 75 be 1f e7 92 be 73 54 c5 3d c6 d9 88 be
       -0.23995745 -0.28691956 0.09635248 -0.26728648
0001b0 6f 88 7f be 6c 21 31 3d 4a 94 0e be c4 a3 49 be
       -0.24954389 0.043244764 -0.13923755 -0.19691378
0001c0 35 c2 5b be 6c 6f e4 be 21 99 d6 bd 46 c6 98 be
       -0.21460803 -0.44616258 -0.10478426 -0.2983877
0001d0 35 f8 58 be 5f 14 02 be 34 26 25 3c 76 74 0e be
       -0.21188433 -0.12703083 0.010079909 -0.13911614
0001e0 8b 6c 68 be a9 1b 6e 3e 87 81 bf be 4d 72 15 bd
       -0.22697656 0.23252739 -0.3740351 -0.03648596
0001f0 13 26 8b be 29 f5 6e be 66 d9 c4 bd ab da 9e bd
       -0.27177486 -0.23335709 -0.09611778 -0.07756551
000200 f3 e6 8d be 93 d2 db be 18 50 f1 3c e8 e2 33 be
       -0.27715263 -0.42934093 0.029457137 -0.17567027
000210 3c b5 d6 be 00 10 c9 3d b2 96 11 be f7 90 cd be
       -0.41935146 0.09817505 -0.14217642 -0.40149662
000220 1d 01 d9 be 01 bc 26 be b6 83 da 3d 17 1c 51 bc
       -0.42383662 -0.16282655 0.10669653 -0.012763045
000230 43 44 c1 3d 7f d4 d8 be 15 62 ac bd 3d ee aa be
       0.09436848 -0.42349622 -0.08417145 -0.33384886
000240 60 5c dd be b2 e7 44 3e a6 68 80 be fd 30 c0 3e
       -0.4323454 0.1922901 -0.2507984 0.37537375
000250 56 44 84 be b0 6b 85 be 07 c4 70 be fb 52 c6 bd
       -0.25833386 -0.26058722 -0.23512278 -0.09683796
000260 3b 2e d1 bd 29 5b c0 bd 28 ac 99 be 42 1c 23 be
       -0.10213896 -0.093923874 -0.30014157 -0.15928748
000270 49 68 a9 be 54 69 03 be f8 8b 53 bd 6b 8d a2 3d
       -0.33087376 -0.12833148 -0.051647156 0.079371296
000280 0c ca 0b be a1 bd 91 bd fd 94 f8 be d5 1f 74 be
       -0.13651294 -0.07116247 -0.4855117 -0.23840268
000290 73 97 3e be e4 45 aa 3d 01 aa bd be 8c be 93 be
       -0.18612461 0.08314112 -0.37043765 -0.28856313
0002a0 e6 9e b8 be 79 7f 4a be 2a 47 e0 bd 4d 96 f1 be
       -0.3605873 -0.1977519 -0.109510735 -0.47184983
0002b0 67 a7 c2 3d 63 35 c2 be 70 5c 84 be af 36 b5 be
       0.09504586 -0.37931356 -0.25851774 -0.35393283
0002c0 20 62 31 be 8d 26 12 3e b7 1f ee bd ff 7f 9f bd
       -0.17322588 0.14272518 -0.11627143 -0.07788085
0002d0 e9 2f a6 be 81 1e 79 3d ab e9 6e be 58 1c 3e be
       -0.32458428 0.060820106 -0.23331325 -0.185655
0002e0 ce bf 57 be 46 d0 8f be 57 05 92 3d 8e 4c 59 3d
       -0.21069261 -0.28088588 0.07129925 0.053051524
0002f0 ed 85 16 be 47 f8 58 3e 0a ef 54 3e 85 9f 56 be
       -0.14699526 0.2118846 0.20794311 -0.2095929
000300 8f e8 17 be 0c 31 4e 3d 49 4b 38 be e9 7a 0f 3d
       -0.14834808 0.050339743 -0.17997469 0.035029326
000310 24 30 8b 3c d9 87 a0 be b3 23 b4 be a1 a3 b9 bd
       0.016990729 -0.31353644 -0.35183486 -0.09064413
000320 08 a0 97 be 6f a8 49 3d d0 07 8c bd 3f b5 c1 bd
       -0.29614282 0.049232896 -0.068374276 -0.09458398
000330 26 74 35 3c f5 21 7b 3c 02 a9 0c be 0b f0 9f be
       0.011075055 0.01532792 -0.13736346 -0.31237826
000340 eb d2 cb bd 79 e3 29 be 93 d6 4a 3d af 0e 27 3e
       -0.09952339 -0.1659068 0.04952104 0.16314195
000350 7e 7e 95 bd e8 99 5e bd 10 44 70 bd 2e ec 51 be
       -0.07299517 -0.054345995 -0.05865866 -0.20500252
000360 4c 90 37 3e 41 30 80 3e d7 4a 25 3c f7 bf 8e be
       0.17926139 0.25036815 0.010088644 -0.27880833
000370 7d ae 59 3e 1b 9f df be 70 99 20 3e 65 d5 01 3e
       0.21257968 -0.43676075 0.15683532 0.1267906
000380 cc 13 45 be 24 b1 0b be f5 8e dd bd 78 66 59 3e
       -0.19245833 -0.13641793 -0.108182825 0.21230495
000390 60 3c ad 3d c4 d3 82 be 80 63 e3 3d 72 b0 ea bd
       0.08458781 -0.2555219 0.111029625 -0.114594355
0003a0 45 ba 10 be 55 4c ac bd 2f 02 b1 be 3d ce 97 bd
       -0.14133556 -0.08412997 -0.34571978 -0.07412384
0003b0 7d 4b e5 be 37 15 f1 bd c8 26 9d be 67 fd 47 3e
       -0.44784155 -0.117716245 -0.3069365 0.19530259
0003c0 80 ee 62 be 90 e5 b6 be 6b 6a e8 be 4c ae 01 be
       -0.22161293 -0.35722017 -0.4539369 -0.12664145
0003d0 ec 5c f0 bd 2e 5d 5f be 89 8b 07 be 1b b8 82 be
       -0.117364734 -0.21812889 -0.13236822 -0.25531086
0003e0 2a 76 22 3e 72 14 e9 be e9 c3 40 be f4 11 63 bb
       0.15865389 -0.4552341 -0.18824734 -0.0034648152
0003f0 b3 d6 9d be 42 a3 c9 bd 64 f0 b4 be a1 dd 49 be
       -0.30827865 -0.09845592 -0.35339653 -0.19713451

model.4.weight f4 [1, 256]
000000 f9 f7 89 be e8 d4 46 3f c3 6b d1 3e 13 9c 22 bf
       -0.26947 0.7766862 0.40902528 -0.635194
000010 2e 18 67 3e 3e 0a 90 3e b0 ac e9 3e d7 b4 4a 3f
       0.22567818 0.28132814 0.45639563 0.7918219
000020 da 1f 47 3f 80 9b b2 3e ae 55 b7 be bb 3f 33 3e
       0.77782977 0.34884262 -0.35807556 0.1750478
000030 b0 c9 44 be e2 58 fd 3e 1b 9d 4b bf 8a 04 03 3e
       -0.19217563 0.49481875 -0.795366 0.127947
000040 cf d6 31 3f dc 68 bd be df fe 9f 3e 20 c7 b6 3e
       0.69468397 -0.36994064 0.3124914 0.35698795
000050 1d f1 64 be 32 c8 cf 3e 95 d2 bf be 57 f4 51 3e
       -0.22357602 0.40582424 -0.3746535 0.20503365
000060 02 bf 07 3f 40 c3 36 bf 28 9d 3c 3f 55 b4 d9 3e
       0.5302583 -0.7139168 0.736773 0.42520395
000070 c8 0e e8 bd df fc 3d bf 3c ef 5c bf ec 19 b6 3e
       -0.11330944 -0.74213976 -0.8630254 0.35566652
000080 33 e3 95 3d e8 6a 2c bf 4a a7 51 3f 68 e4 69 be
       0.073187254 -0.67350626 0.8189589 -0.22841036
000090 b8 c7 be be 7c 61 89 3e 59 b3 99 be a7 b4 2c 3f
       -0.37261748 0.26832187 -0.30019644 0.67463154
0000a0 f1 16 e5 bf af 93 90 3e 56 3c 6f bf 3d 87 07 bf
       -1.7897626 0.28237674 -0.9345144 -0.5294073
0000b0 f8 00 32 3e 85 f0 5d bf 31 32 de 3e c2 3f 9f be
       0.17383182 -0.8669513 0.43397668 -0.3110333
0000c0 f7 99 0b 3f 52 c3 8d be 0d af 50 3f 07 3e 3d bf
       0.54531807 -0.2768808 0.81517106 -0.7392277
0000d0 c5 d9 7e be b7 bc 5f bf 63 ba d2 be 2a 44 ca 3e
       -0.2488776 -0.8739733 -0.41157827 0.3950513
0000e0 3c 00 51 3e 6e ab 8b be 02 63 f8 3e 70 ee ad be
       0.20410246 -0.27279228 0.48513037 -0.33970976
0000f0 9c d9 92 be ca d9 68 be bf 25 bb be fa ae 36 bd
       -0.28681648 -0.2273933 -0.36552235 -0.044600464
000100 7c c9 62 bf 6b f5 f0 3e 63 f1 94 be 62 26 e6 3e
       -0.8858869 0.4706224 -0.29090413 0.4495116
000110 18 3f 9b be 19 80 d4 3e b8 63 28 3f 5f 79 62 be
       -0.30321574 0.4150398 0.6577716 -0.22116612
000120 41 d0 01 bf a0 1f 9e 3e 0e a5 4c bf 2d ee 30 3f
       -0.50708395 0.30883503 -0.79939353 0.6911343
000130 a2 80 f1 bd 57 31 c9 3e d2 a6 fd be 2d 5c 49 3f
       -0.11792113 0.39295456 -0.49541336 0.78656274
000140 98 f3 41 bf 8a 3b 11 bf fa 35 27 bf 4a ff aa be
       -0.7576232 -0.56731474 -0.65316737 -0.33397895
000150 c4 13 9f be bd 3d bf be 95 c8 d2 be c4 0a 03 3f
       -0.31069767 -0.3735179 -0.41168657 0.511883
000160 e8 d5 83 be 36 5e 19 bf 08 48 91 be 84 42 99 be
       -0.25749135 -0.5990938 -0.28375268 -0.2993356
000170 aa 68 06 3e 75 62 ec be ee d2 3b 3f d6 9b 99 be
       0.13125864 -0.46168867 0.7336873 -0.30001706
000180 5d 1d e2 be a4 a7 9f 3e e0 36 28 be 54 1d 60 bf
       -0.44163027 0.31182587 -0.16427183 -0.8754475
000190 68 42 89 3f d8 8e 5b 3f 1a 56 9c 3e 0d 69 ed be
       1.072339 0.8576484 0.3053444 -0.4636921
0001a0 09 bf 61 3f 94 cd 34 3f 39 d0 07 be 92 ac 02 3f
       0.8818212 0.7062619 -0.13263024 0.5104457
0001b0 b0 3e c2 3e 7e 2e b2 be 06 d1 16 bf 13 73 42 bf
       0.37938452 -0.34801096 -0.58912694 -0.7595684
0001c0 cd f0 6c 3f d0 5d a4 3e 74 ab 0d bf f7 20 0e 3f
       0.9255493 0.32102823 -0.5533974 0.5551905
0001d0 92 e3 c4 3e 3c b6 47 3f 48 b3 b5 be e2 97 5c 3e
       0.38454872 0.7801244 -0.35488343 0.21542314
0001e0 b4 93 ac bf 88 81 c7 be 98 cd b5 3e 1e 44 55 3e
       -1.3482575 -0.38966012 0.35508418 0.20826766
0001f0 0c 9c 62 3d 9e a9 88 3d 8b e8 a5 be 76 5a b3 be
       0.0553246 0.06672977 -0.3240398 -0.35029954
000200 35 87 8f 3e f0 08 e4 3e 72 a8 e6 bd c2 06 f6 3e
       0.28032842 0.4453807 -0.11262597 0.4805203
000210 75 96 25 3f 65 43 bc be 91 7f 11 bf 40 8c 22 3f
       0.64682704 -0.36770168 -0.56835276 0.63495255
000220 cb 70 1e 3f 85 7f d7 be 5f 22 5f bf 8c 85 bd be
       0.6189086 -0.42089477 -0.8716182 -0.3701595
000230 db d4 56 be dd 7a 38 3f 39 d8 2a bf 6b ba 0b 3f
       -0.20979635 0.72062474 -0.6673618 0.54581326
000240 8f b2 56 3f 99 56 9d be 8b 2a 99 3e f4 f6 56 be
       0.8386621 -0.3073013 0.2991527 -0.20992643
000250 4d 78 d9 3e 91 cf 14 3f 55 8c bc 3e 75 53 f9 3e
       0.42474595 0.5812922 0.36825815 0.48696485
000260 19 da 75 bf f0 d9 18 bf 9c 66 13 3f ac a3 48 3f
       -0.96035916 -0.59707546 0.57578444 0.78374743
000270 85 7f 83 3f 66 7b 09 3f c1 19 9f bf 80 2b aa be
       1.0273291 0.53703916 -1.2429734 -0.33236313
000280 aa 48 0e 3f 89 a3 15 bf 40 ff 2f 3f 77 01 58 3e
       0.55579627 -0.5845266 0.68748856 0.21094309
000290 2d 6f 3c 3e ec 49 37 bf 09 2d 18 3f 66 80 93 3e
       0.18401785 -0.7159717 0.5944372 0.28808898
0002a0 2a 7e 90 3e 72 50 03 bf fb bb 24 3d 48 59 48 3f
       0.28221256 -0.51294625 0.040218335 0.7826123
0002b0 25 1b c5 be 7d b7 07 3f 2e 3b 98 3e de c1 bd 3e
       -0.38497272 0.53014356 0.2973265 0.3706197
0002c0 e3 a9 e0 3e 2a 3d 45 bf fb 96 03 bf 32 50 85 3f
       0.43879613 -0.77046454 -0.5140225 1.0415099
0002d0 cd 97 9e 3e a3 33 0c bf 4d 17 e5 3e d4 24 b5 be
       0.3097519 -0.5476629 0.4474434 -0.3537966
0002e0 da 08 b4 3e 64 70 a8 3e 7f b7 ea be 90 1a 93 bf
       0.35163003 0.32898247 -0.4584312 -1.1492481
0002f0 da 1a c6 be 8e 79 85 be ca 7b 34 be 8b 7a f0 be
       -0.3869236 -0.260693 -0.17625347 -0.46968493
000300 dc a6 a6 be 07 21 75 be 95 e6 22 bf 88 a1 73 be
       -0.3254918 -0.2393838 -0.6363309 -0.23792088
000310 74 ae 8a 3e a1 d0 11 3e 00 21 10 3f 6f a1 ca 3e
       0.27086222 0.14239742 0.56300354 0.3957629
000320 b2 be de 3e cb f4 94 bf 4b dc 51 3e c9 f4 14 3f
       0.43504864 -1.1637205 0.20494191 0.5818601
000330 1d 32 fd be 91 05 7a bf eb ed 69 bf 86 a9 5b 3f
       -0.49452296 -0.97664744 -0.9137866 0.8580555
000340 f4 66 4e 3e 59 23 b6 ba 1f 6c fc be 1e c2 0c 3d
       0.20156461 -0.0013896032 -0.4930124 0.034364812
000350 5e 60 61 3a ec 77 f1 be 30 ad c8 be 13 26 57 3e
       0.00085974287 -0.47161806 -0.39194632 0.21010618
000360 72 a9 ac be b5 f0 00 bf f0 b7 97 be e7 cd ba 3e
       -0.33723027 -0.5036729 -0.2963252 0.36485216
000370 d2 b6 ca be b7 81 e6 3e 66 7f 6c be 13 bd 61 be
       -0.39592606 0.4502084 -0.23095474 -0.22044782
000380 68 44 44 3e 47 a2 3d 3e 28 d5 25 be 2a e4 cc bd
       0.1916672 0.18518935 -0.16194594 -0.10004456
000390 2d 1e 2e bf 50 a4 66 3e 6c 55 03 bf 4b 83 18 bb
       -0.68014795 0.22523618 -0.5130222 -0.0023271616
0003a0 de de a1 3e 8d ae a8 be 7e 3a 3f 3e c8 cc 7d bf
       0.31615347 -0.32945672 0.18674657 -0.99140596
0003b0 ce 88 4d 3f ab 9d 37 3e d0 02 8f 3e ae 66 a3 be
       0.8028687 0.1793124 0.27931833 -0.31914276
0003c0 a0 1f 0a 3f 33 d3 58 3f 6b 12 06 3f 18 a9 1c 3e
       0.53954506 0.84697264 0.52371854 0.15298879
0003d0 91 64 0d bf bc b2 0e 3e f4 38 42 3d 8e a4 4c 3d
       -0.5523158 0.13935369 0.047417596 0.04996162
0003e0 60 3e 47 bf a5 67 ed 3e 11 b7 23 bf 86 e2 07 bf
       -0.7782955 0.46368137 -0.6395121 -0.5308002
0003f0 d6 3e 8b 3e 75 02 2c bf 93 b8 19 3f 71 5c 39 3e
       0.27196378 -0.6719125 0.6004726 0.1810167
