backend/GANModel/gan_generator.pth (torch, 799624 bytes, 8 tensors)

model.0.weight f4 [128, 100]
00000000: 8329 773e 7b6a 23be 6cbc 86bd 924c b1bd
00000010: 3cfa 0e3e d516 703d f2fa 1d3e 2c1a c93d
00000020: cb70 c8bd fb2b 6b3d e8df 453b 9c6f 5e3e
00000030: fab9 143e b1de 17be 979d 1cbe 62c7 063e
00000040: 878f 98bb bd0f 8abe 97b1 2d3e 9fd3 47be
00000050: c1b9 31be cd6e b83d 0032 f23d 3675 3b3d
00000060: f0c4 c43c e219 1dbe c498 4d3d 9bd0 28be
00000070: 2517 92be 3a16 9ebe bcac 8fbe dc7d 9e3d
00000080: 7c61 b9be c9d4 a7be e8e0 81be e896 ab3d
00000090: f024 8dbe b113 b53b 218d 84bd 4c4e 013b
000000a0: 4e6c 4dbe dd9d 05bf 556b 61be c7c4 5cbe
000000b0: fe53 ee3d a321 b1bc cbd7 1abe cde9 5cbe
000000c0: fe6b e8bd 3c83 c13c 4040 edbd 98f5 663d
000000d0: 6306 73be 7731 bbbd 2120 78bd dee9 1d3d
000000e0: 5bf8 55be f703 1abe dd34 2f3b 82c6 023e
000000f0: fd8b 7bbe 62ee a53d 282c eb3d ce60 95be
00000100: cf79 1e3d 4786 163e e043 c2be c911 d3bd
00000110: 2888 23be b5b6 f3bd 1eb0 8cbd 3c86 f83c
00000120: d3a6 c13e 817b da3d 36e1 09be 0b13 4cbd
00000130: 3827 8ebe dc70 453d de1d 703d fda3 83bd
00000140: 30c4 ce3d 4175 c83e 55d5 1fbe fea7 293c
00000150: 18c4 59be 1e07 a1bc 35b8 b93a 5dd9 b33e
00000160: 656a 82bd 9afa 19be 99dc e03d 5e9f 993d
00000170: 918a 1dbe 9559 90be cd40 053f 2543 623d
00000180: 1568 bbbd 965b c63d 6844 473d d411 93be
00000190: b806 883d 9a68 3a3e 9cc1 0abf 32a8 c23c
000001a0: 9a0e 9abe 724e 8dbd c64b 1cbe 1013 d0bd
000001b0: d372 b7be 4e08 7abe 8bbb 823e 72cc f2be
000001c0: 6601 b7bd 499c 3ebd 7071 bf3e 5ad8 233e
000001d0: d25c d1bd 35af c73c 48c5 ddbd a364 8cbd
000001e0: 210c 8bbd cc7b 49be d72d 683e d625 2abe
000001f0: e3d5 b53e 4e99 ee3c 2b37 0abd 6832 183e
00000200: bc02 893d 6aa1 8fbe 8eb0 94bd aa42 913e
00000210: b980 b1bb a80c 25be 9309 a9be 9285 6b3e
00000220: cc78 0c3e 698b 10be 2152 983d c632 c9be
00000230: 11e2 e0be 5911 d7be 7263 f63d 4ecc b53b
00000240: b054 d4bd 7077 a7be a119 12be 553a b53e
00000250: fb5d 353e 124c 45be 58ca c53d 2bf7 8bbd
00000260: 300b 8dbe 24e4 c13e cc24 84bd a5e7 8b3e
00000270: c75e c23d 6595 8ebe 51a4 823e 45a9 dbbd
00000280: 575f 53be bb5e d2bd 6ce7 4cbd 72cd 9f3e
00000290: ab4c 03be bda1 f23d 34f3 b9bc 6142 83bd
000002a0: a9af dcbc a73d 4c3e 75bd fb3d ba0f d93a
000002b0: 6fa6 da3d 5509 6cbe 03c2 273e ba4f 083f
000002c0: 712b db3e c1d1 103d ed27 b6be 93c7 b43d
000002d0: a1be 453e a2d3 623e 24d6 1d3e d9b5 983d
000002e0: 4f22 90be cad8 a5bc 9fb6 fbbd 3f51 93bd
000002f0: fafc 863e f140 b93e 8117 29be e77a 24bd
00000300: e322 8cbe ed8b 91be fe63 cc3e 2db5 58be
00000310: e076 823e 6a13 9bbe 9053 eebd 263a 1bbe
00000320: 1040 ddbd 199b 91bc ed2b b4bd 3e3f 4cbd
00000330: 4303 d63e cfd3 49bd ae9b 36be 6c9a c5bd
00000340: 5fe3 e2bd 9459 e7bd f756 063e 4f19 083d
00000350: 77ea ddbc 06b2 04be b222 3cbd 58e0 8f3e
00000360: ec79 adbd 0af5 433e 0f64 8e3c a9b2 bfbd
00000370: 2129 85bd 9400 a13d 5b54 1cbe 0c0b c1bd
00000380: a3fc 873e 7b4d 91bc 5ef0 943e 53a7 503c
00000390: 39c0 1fbe 591e 8abe 3a2b 46be 8e3d 743d
000003a0: 9d8e c0be 63e4 cf3c 916d 0ebe 4a3f 55bd
000003b0: 61ab fdbd e56c d73c e3be cfbd a552 a2bd
000003c0: 99a7 f3be d6a6 03be ea22 983e 8e90 41be
000003d0: d740 583e adc9 28bd adf5 32be 0dca 8a3d
000003e0: 8cc7 b1bc 92ec e13e 4eab d03d eed6 fb3d
000003f0: 558f 15be dee5 aebe 328d 97be e782 e7bd
0.24136929 -0.15958588 -0.06578907 -0.08657183 0.13962644 0.058615524 0.1542776 0.09819445
-0.097871386 0.05741499 0.0030193273 0.21722263 0.1452407 -0.14831044 -0.15294491 0.13161996
-0.0046557817 -0.26965132 0.16962276 -0.19514321 -0.17356016 0.090055086 0.11825943 0.045766078
0.024019688 -0.15341905 0.050194517 -0.16485827 -0.28533283 -0.30876333 -0.28061473 0.077388495
-0.36207187 -0.3277953 -0.25366902 0.083783925 -0.27567244 0.005526029 -0.06472231 0.0019730506
-0.20060846 -0.52194005 -0.220136 -0.2155944 0.11637114 -0.021622485 -0.15121381 -0.21573563
-0.11348723 0.023622148 -0.1158452 0.05638656 -0.23732905 -0.09140294 -0.060577516 0.03855311
-0.20895521 -0.15040575 0.002673439 0.12771037 -0.2456512 0.081021085 0.114830315 -0.2917542
0.038690384 0.1469966 -0.3794241 -0.103061266 -0.15969908 -0.11900083 -0.06869529 0.030337445
0.3782259 0.10668088 -0.13464817 -0.04982285 -0.27764297 0.048203334 0.058622234 -0.06427763
0.100960135 0.39151958 -0.15608723 0.010354994 -0.2126621 -0.019656714 0.0014169278 0.35126773
-0.063679494 -0.15037003 0.10979576 0.075011 -0.1538489 -0.28193346 0.52052003 0.055239815
-0.091507114 0.096854374 0.04864922 -0.2872454 0.066419065 0.18203965 -0.54201674 0.023761842
-0.30089265 -0.06899728 -0.1526328 -0.10159886 -0.3582979 -0.2441723 0.2553371 -0.47421604
-0.089358136 -0.046535764 0.37391233 0.160005 -0.10222782 0.024375537 -0.10828644 -0.068551324
-0.06789423 -0.19676131 0.22673737 -0.16615996 0.35514745 0.029125836 -0.03374402 0.14862978
0.06689975 -0.28052837 -0.07260238 0.28371173 -0.0054169563 -0.16118109 -0.33015117 0.23000172
0.13717955 -0.14115681 0.0743754 -0.3929655 -0.43922475 -0.42005423 0.120306864 0.0055480367
-0.10367715 -0.3270831 -0.14267589 0.35396066 0.17711632 -0.192673 0.09657735 -0.06834253
-0.27547598 0.3786937 -0.06452331 0.27325168 0.094907336 -0.27848354 0.25515988 -0.10725645
-0.20641838 -0.10271975 -0.05002539 0.3121143 -0.12822215 0.118472554 -0.022698976 -0.06409145
-0.02693923 0.19945394 0.122919954 0.0016560473 0.10676276 -0.23050435 0.16382603 0.53246653
0.4280658 0.035356287 -0.35577336 0.08827128 0.19311 0.22151044 0.1541372 0.0745656
-0.28151175 -0.020244975 -0.122906916 -0.07193231 0.2636488 0.3618236 -0.16512872 -0.04015627
-0.27370366 -0.28427067 0.39920038 -0.21162863 0.2548132 -0.3028825 -0.11637032 -0.151589
-0.108032346 -0.017774152 -0.08797441 -0.049865 0.41799363 -0.049274262 -0.17832825 -0.09648594
-0.11078524 -0.112963825 0.13119112 0.03322726 -0.02708934 -0.12958536 -0.045931526 0.28100848
-0.084705204 0.19136444 0.017381696 -0.093602486 -0.06501985 0.078614384 -0.15266554 -0.09425935
0.26559934 -0.01773714 0.29089636 0.012735206 -0.15600671 -0.26976278 -0.19352427 0.059629016
-0.37608805 0.025377458 -0.13908984 -0.05206231 -0.123862036 0.026297042 -0.101438306 -0.079259194
-0.47588804 -0.12856612 0.29714137 -0.189028 0.21118484 -0.041207958 -0.1747653 0.067768194
-0.021701597 0.441258 0.10188924 0.12296854 -0.14605458 -0.3415975 -0.2959991 -0.113042645

model.0.bias f4 [128]
00000000: 59b1 58bf 7f11 cc3d 09e6 28bf 107e 12be
00000010: 5326 26bf 0561 d0be a784 71bf 1b91 9b3e
00000020: b53f cebe ac25 5ebe eff0 52be fe27 063f
00000030: 7fe4 1bbf 1ab7 953e f7ed 45be 6033 fcbd
00000040: 388b 02bf 23d2 0dbf bad8 38be 06cf f23d
00000050: 29f0 98bf f41b 15bf 87de c2be 8262 44bf
00000060: bb90 2cbe ed46 8fbf 2d1a 23bf 0a22 80be
00000070: 5579 a53d ffe4 10bf 16ac 79bf fb1a d8be
00000080: 80de 16bf 9eeb 2a3e e1a0 25bf abb5 01bf
00000090: 5582 e8be fb2c d83e aba4 ddbe d3f1 5f3e
000000a0: e6e9 ddbe 4d1b 4ebf 78c2 6cbd 5228 6ebf
000000b0: 0c95 9fba 7ae0 30be f7cd 90be 3639 8a3e
000000c0: c2d3 353d 99c3 67bf 09f9 bebf a653 cbbe
000000d0: d2e0 58be d5d3 103e 2286 dfbe c67f 1bbf
000000e0: 7843 52bf 5328 133f a49c 5fbc ab0d 833e
000000f0: 3d25 02bf 7486 39bf 8dbe f53d d833 833e
00000100: bda6 41bf d58f 15bf a36a 333e 50e3 ecbe
00000110: c0d2 d6be a8d2 15be 4736 a83e 423a be3e
00000120: ab20 82bf cbd3 603e a879 17bf 35e4 863d
00000130: bc1a f63c 56cf 033e 2879 a2be b85d 58be
00000140: 138a 973e 8a2a eebe d63f 0abf b696 e63c
00000150: c862 6bbf 6616 6fbe bd23 b0be 6290 2bbf
00000160: cb75 25bf 6119 54bf a2d3 8a3d 0f05 a9be
00000170: a436 87bd 10ca 11bf 8cfb e43d 06b1 31bf
00000180: aa97 9ebf 0ae2 9ebe ab2b 0ebe 969f ddbe
00000190: b558 243e 5f5a 4abf cec8 413f 9f76 423e
000001a0: a07c 08be 04d4 f6be 457f 66bf 6449 a1be
000001b0: a064 623e d9b7 6cbf 0eef 57bf b113 5abe
000001c0: c87a 86be 67b9 3ebf 2479 20bf d7e5 943e
000001d0: 92ec 9cbf 81f6 8dbf b8a7 293f f0e9 c7be
000001e0: dcc5 f2be 06a0 8dbf 33f8 79bf 364e 7cbb
000001f0: c305 1b3f 4b7f 51be b4fa ebbe f8f0 68bf
-0.8464561 0.099642746 -0.65976006 -0.14305902 -0.6490223 -0.4069902 -0.94343036 0.30384144
-0.4028298 -0.21694058 -0.20599721 0.52404773 -0.6089553 0.29241258 -0.19329058 -0.123144865
-0.5099368 -0.5539877 -0.18051425 0.11855893 -1.1948291 -0.5824578 -0.380604 -0.7671281
-0.16852085 -1.119352 -0.63711816 -0.2502597 0.08079783 -0.5659942 -0.9752821 -0.42208084
-0.5893326 0.16691443 -0.64698607 -0.5066783 -0.45411935 0.42221817 -0.43289694 0.21869592
-0.43342513 -0.8051041 -0.057802647 -0.93030274 -0.0012175157 -0.17273131 -0.2828214 0.26996773
0.0443914 -0.90532833 -1.491975 -0.39712256 -0.21179512 0.14143308 -0.43657023 -0.6074184
-0.821342 0.57483405 -0.013648186 0.25596365 -0.5083807 -0.72470784 0.11999235 0.2562549
-0.7564505 -0.58422595 0.17521147 -0.46267176 -0.41957664 -0.1463114 0.3285391 0.37153822
-1.016622 0.21955793 -0.5917001 0.06586496 0.030042045 0.12872061 -0.3173306 -0.21129501
0.2959753 -0.4651683 -0.54003656 0.028148036 -0.91947603 -0.23348388 -0.34402266 -0.67017186
-0.6463286 -0.82851225 0.06778647 -0.33011672 -0.06602219 -0.5694895 0.11180791 -0.6941074
-1.2390034 -0.3103183 -0.13883846 -0.43285817 0.16049464 -0.79044145 0.7569703 0.18990563
-0.1332879 -0.4820863 -0.9003795 -0.31501305 0.22108698 -0.9246803 -0.84349144 -0.21296574
-0.2626555 -0.7450165 -0.62684846 0.29081604 -1.2259696 -1.1090852 0.66271544 -0.39045668
-0.4741658 -1.106446 -0.97644347 -0.0038498766 0.60555667 -0.20458715 -0.4608971 -0.9099269

model.2.weight f4 [256, 128]
00000000: 3f6f a7bd 2862 99bc 99ed 4a3d 36d4 d7bc
00000010: a668 e63b 118f 0bbd 3145 f3bb 4862 eebd
00000020: 7f74 8dbc d06d 15bd 1bdd 73bd 7f3f 0fbd
00000030: 2652 90bd 411f f3bc 13af afbb a137 8c3d
00000040: 4ef0 42bd af82 eabd 2976 4dbd e9c8 c93c
00000050: f573 e5bd c051 073d d8ea 10be 0ded 05be
00000060: ba6e 93bc b35b d9bd 865e 14bd f47d 1cbe
00000070: 5556 7dbd 4187 f0bc 38f2 2ebe 5c56 4bbc
00000080: a07d bc3c 4bfb 523d 2b5d f03c b4a9 133d
00000090: 5932 5038 b704 323c 70a0 113d a582 babd
000000a0: d62d 34bc cdf3 1c3d 1e70 8cbd 51e1 ba3c
000000b0: d952 e6bd 1dd6 873d b4b2 f13c 5ae5 8abd
000000c0: b87c 9bbb 66bb b5bb 08c6 533c 9bb9 8cbd
000000d0: 4a7c 95bd 3c6c bebd c205 a2bc afe6 d8bd
000000e0: c475 56bd e491 873c dcf0 bcbd e444 043c
000000f0: 2b63 99bd 859a d03c 06c5 0ebc 153a ecbc
00000100: c307 9e3c 6d7f 59bd fb85 e33c 7343 93bd
00000110: da52 e8bd 0505 11bd 4f9b 0e3d dcc1 e5bc
00000120: 8954 0a3c 71a5 44be 0f79 953d e60d 5abc
00000130: 3bc5 10bd dff0 f4bd 513a c3bd e164 a1bc
00000140: 5e88 03be 7286 b5bc b6e8 5fbd e6de c6bd
00000150: c77d f23c 0aea c9bd d82d 913d d595 a7bd
00000160: 120d e7bd 7aa1 803d c7a1 bdbc 59a4 483d
00000170: 796a 43bd af62 0e3d afee fbbc cde0 33be
00000180: 0ee5 d9bd 1493 19bd 5956 cdbd ff27 88bd
00000190: e4d6 cdbd 05e3 0fbc c678 a3bb a0aa 643d
000001a0: d889 6fbd 1f89 f2bd 51a5 ba3c b385 97bd
000001b0: 479e 02bd 0d99 ed3c db31 a33c 2e6a b2bd
000001c0: 1f2b 30bd 3479 d3bd d7b4 cebd 5892 d33c
000001d0: 4fd3 62bd 2277 07bd 865c 71bc 4a29 f2bc
000001e0: cb64 8ebd f94c ae3d e467 3b3d befb a1bd
000001f0: 70ea acbd c3c5 e2bd bc88 dcbd 1a8d 443b
00000200: 7597 3e3d e6cb 07bc a3b0 ca3c cc64 74bd
00000210: 1866 1cbe 24df f33c 2669 4cbd bf3c b7bd
00000220: 2323 77bd 0036 2bbd 5810 4c3d e6fe 633c
00000230: 468b 92bd ba10 16be aac3 773b 6d02 afbd
00000240: e18b 01bd ede8 abbd 54bc 34bd deec b3bd
00000250: 17a3 153d ee24 f33d d29b 613d 0d72 2d3c
00000260: 3b75 36be f865 e0bd 16e3 4fbb 8c72 0cbe
00000270: 3cad a43d df91 94bc 962c 853c fbc7 4cbd
00000280: 4c7f b0bd ba76 32be 0bf2 8ebd d89d c0bd
00000290: 5c1a febc b5bc d1bd a507 77bd eaf4 62bd
000002a0: bae9 cdbd fb30 a8bc 3250 40ba e544 27be
000002b0: 6e37 383d 4c75 debb d7da 683d 5dd9 b1bd
000002c0: 1755 0cbe a268 b9bd 5a19 d7bc f99f 95bd
000002d0: 0076 2cbb d8fc a9bc 605c 483d 4764 c73c
000002e0: 4a09 16bc 6f97 5bbe 3d4c 9d3d 7cb8 15be
000002f0: 6950 ecbd 557c 03be c5d1 cbbd c566 02be
00000300: a49c 25bd 22ad 21bd b918 e4bd 43c6 67be
00000310: dc27 17bd 4036 8abd 3851 fdbd 8f78 fcbc
00000320: 0cd9 c93a b962 18be 7517 23bd 6cf0 983c
00000330: 9417 51bd c10e d0bd 161f 84bd 2d3c 9cbd
00000340: a45b b83c 3be4 76bb 612f 22bd 3f2a bcbd
00000350: 8b64 f2bd 6a7c a2bc e817 a0bd 82a2 e1bd
00000360: 61ba c7bd 35a4 b63d 205b 84bd 0f0b c7ba
00000370: 3ad4 acbd 8271 853d 5e72 15be 704f 5f3d
00000380: 825b 34bd 6164 b23d bf91 60bd bdde 63bd
00000390: 862a 2abe 4816 e1bd 88c1 71be 0569 ecbd
000003a0: 229c 0fbd 6505 92bd a5eb cdbd 57de 30bd
000003b0: f482 85bd 5c11 73be 2bf3 3bbd 8cbb a7bd
000003c0: 2310 293d 49b8 76bd 7810 0e3d e283 ffbd
000003d0: 8cc1 4cbe 651a f1bd 99c8 98be 8db8 bcbd
000003e0: c3b5 223b d5a3 0b3b a631 533c 92bd 343d
000003f0: 0d23 2ebe 6866 5fbd ae6e 2cbe f1a3 1dbd
-0.081755154 -0.018723562 0.049542997 -0.026346307 0.007031518 -0.034071986 -0.0074240197 -0.116398394
-0.017267464 -0.03648168 -0.059537034 -0.034972664 -0.070469186 -0.029677989 -0.0053614466 0.06846548
-0.047592454 -0.11450707 -0.050161514 0.024631934 -0.11203758 0.033036947 -0.14152086 -0.13078709
-0.017997134 -0.10613193 -0.036222957 -0.15282422 -0.06184991 -0.02936137 -0.17084587 -0.012410726
0.023009121 0.051509183 0.029341301 0.036050513 4.9637954e-05 0.010865382 0.035553396 -0.0910695
-0.010997256 0.038318444 -0.06857322 0.022812517 -0.11246271 0.06632636 0.029504158 -0.067820266
-0.0047450922 -0.0055460213 0.012925632 -0.06871339 -0.07299097 -0.09297988 -0.019778136 -0.105908744
-0.052358404 0.016549058 -0.09225628 0.008073065 -0.07489618 0.025464306 -0.008713966 -0.02883629
0.01929081 -0.05310004 0.027773848 -0.07190599 -0.11343928 -0.035405178 0.034816083 -0.02804654
0.008443006 -0.19203736 0.07298481 -0.013308978 -0.035344344 -0.11960005 -0.09532607 -0.019701423
-0.12844989 -0.022158835 -0.05466529 -0.09710483 0.029600991 -0.098590925 0.07088822 -0.08182875
-0.1128179 0.06280799 -0.02314843 0.04898486 -0.047708962 0.03476208 -0.030753462 -0.17566223
-0.10639392 -0.03749378 -0.10026235 -0.06648254 -0.10050753 -0.008782153 -0.0049887626 0.055826783
-0.058481067 -0.1184256 0.022783907 -0.07398548 -0.031889226 0.029003644 0.019921234 -0.087116584
-0.043009873 -0.10325852 -0.10093086 0.025826618 -0.0553773 -0.0330726 -0.014731532 -0.029560704
-0.069528185 0.08510775 0.045753375 -0.07909344 -0.08443153 -0.11072876 -0.107682675 0.002999133
0.04653116 -0.008288359 0.02474243 -0.05966644 -0.1527332 0.029769488 -0.049904965 -0.08947133
-0.060336243 -0.041799545 0.049820274 0.013915753 -0.071554706 -0.14654818 0.0037805834 -0.085453846
-0.03162754 -0.083940364 -0.044124916 -0.08785413 0.036532488 0.11872278 0.055080242 0.010586274
-0.17818157 -0.10956949 -0.0031721047 -0.13715571 0.08040854 -0.018135963 0.016256612 -0.049995404
-0.0861803 -0.17428103 -0.0697976 -0.09405106 -0.031018429 -0.10241071 -0.060310025 -0.05540935
-0.100543454 -0.020531168 -0.0007336169 -0.16334875 0.044974737 -0.006788885 0.056849327 -0.08684037
-0.13704334 -0.0905316 -0.026257206 -0.07305903 -0.002631545 -0.020750448 0.04891622 0.024339808
-0.009157488 -0.21444486 0.07680557 -0.14621156 -0.115387745 -0.12840398 -0.0995212 -0.12734516
-0.040432587 -0.039471753 -0.11137528 -0.22634225 -0.036903247 -0.067486286 -0.12369007 -0.030819206
0.0015399768 -0.1488141 -0.039817292 0.01866933 -0.051047876 -0.10159064 -0.06451242 -0.07628665
0.022504635 -0.0037672657 -0.039595965 -0.09187745 -0.11835583 -0.019834716 -0.0781706 -0.11017324
-0.09752346 0.08918039 -0.06462693 -0.0015185791 -0.084389165 0.065157905 -0.14594409 0.054519117
-0.04403258 0.08710552 -0.054826494 -0.05563234 -0.16617784 -0.10990578 -0.23608983 -0.115434684
-0.03506101 -0.07129935 -0.10054711 -0.04318079 -0.06519118 -0.23737091 -0.0458862 -0.081900686
0.041275155 -0.06023434 0.034683675 -0.124763265 -0.19995707 -0.117726125 -0.29840544 -0.09214888
0.0024827577 0.0021307368 0.012890255 0.0441261 -0.17005558 -0.05454102 -0.16839096 -0.038486425

model.2.bias f4 [256]
00000000: b4bc c9bd 0557 0a3d f25c 21bf 255e 363e
00000010: 4e3a 663e ee49 9ebd e475 8abd d87a b8bd
00000020: 171e ab3c 5ea3 ef3c 2b02 163d bcf6 913c
00000030: 09fc 133d a96f bd3d 407e f3bd 24db 383e
00000040: 98a5 e5bd 8a9c 8c3f 0ba7 ce3d 5e90 813d
00000050: db72 f2bd 6011 1bbe bd1e c6be 0e51 9bbd
00000060: e2dd 46be b4c3 9abe daef adbe c7cd 33bd
00000070: 2805 e53e d68b 983f 10bb b7bd a1ed 223f
00000080: 8747 02be 63e7 84bd d464 693c 0eba 333c
00000090: e1d2 573e 57c6 55be faab fdbd 19ad 02bf
000000a0: 4018 5dbd 218e 66bd 6a84 933e 1152 a53d
000000b0: f73f 30bf 0062 59bc fd73 21bf 748d c5bd
000000c0: 69cc 283d e955 58bc 9d47 033d b4f6 d1bd
000000d0: df5b 31bf a9c3 b7bd deb8 a2bd 862c 63bd
000000e0: de36 293f 23a3 aebd a78b 1b3f 15bb 58bd
000000f0: 34b5 a1be 4fa4 723c 7735 703e 5a08 bd3e
00000100: 287d a3bd 8110 37bf f585 30be 93e0 b5be
00000110: e1ac 52be 69d3 43bc 1f77 793c a764 a5bd
00000120: 5fe2 213e 861c 93bd b01f 273d 1d00 303e
00000130: f632 f03e d860 d7bc 11a1 bf3f 619f 9bbd
00000140: 9af3 04be adf0 42be 506d 39bd 4b8d 823e
00000150: 7a15 0cbe ce7c 25bf 1526 7a3e 74e7 d4bd
00000160: d957 f1bc 6d4f 0e3c cf00 453d e296 163e
00000170: 762f eebd 8f89 0a3d 9132 86bd 201f dcbc
00000180: 84fe 733d 215f 9abc e709 eabc b2a5 b43d
00000190: 5c70 35bb b8d5 9abe 5989 89bd c654 4f3e
000001a0: c288 18bd c827 0abe f162 153e 10ef b8bd
000001b0: dad6 2e3d e643 b83e 4ed0 2cbe 1371 01bd
000001c0: 4916 b9bb 8a36 4dbd 238f 22bf 424f 8dbe
000001d0: 8d69 073d 6a35 0540 4b1c 1e3d 0c41 633d
000001e0: aab6 b63e 9e03 b4bd e129 46bf 701b 0b3e
000001f0: 5209 87bc 62dc 9e3f 01cd 4bbe d13a 97bd
00000200: f31d 6c3d a1da 023c 62fd a6bd 916c a6be
00000210: 1601 08be 87a9 78bf 65c2 53bf 7126 f03b
00000220: b621 bd3c b788 9f3e 1121 a13f e18b f4be
00000230: c073 193e 1959 3a3f a4bd 903d 2c3c a0bd
00000240: 932e 7c3c b99f 72bd 5234 803d 1af2 0ebf
00000250: 4133 f73c b819 91bd 5689 103d 8bd4 2d3d
00000260: a298 5e3d f79e 90be b946 10bf 291c b6bf
00000270: 0186 14bf cfa2 d1bd 5fde 88be 8c6b 80bd
00000280: 3765 09bf 4415 b1bd cd9f 88bc 2ee8 f0bd
00000290: 7b1d 203e 941f 0abf 800a 0ebf a243 cfbd
000002a0: e7d3 813b 009b a93e 05e6 063e b28e f7bd
000002b0: 5f24 623d 3fea 8ebd 68c3 62be b1f0 843d
000002c0: ec88 f23d bb2d 2bbe 8f16 dabd 9bda a8be
000002d0: af3b 6b3d 8b8c 4fbd 69a3 c53c 1f6b cfbe
000002e0: ddb6 fabc 0217 b1bd e79b b3bd 0967 493d
000002f0: bbee 63bd 0385 06be ae67 90bd 698f 13bf
00000300: a5a1 b73d 5e61 60bd 20e8 97bd 7d94 aebd
00000310: 2b95 eebd 654e babd cb6c d5be aa4e 42bf
00000320: c137 03bf 9d40 86bd 8acf d7be 703c e4bd
00000330: 5f79 91bd 6af1 abbd a58a bbbd 6e7a 53bd
00000340: 369d 533e 6b40 5dbb 1462 013d 991a 873e
00000350: 93d3 303d c81b f6be 4c25 0fbd d77f 0cbe
00000360: a06a b73e 1bf9 163d 3b7b 4fbe 3c2b cc3c
00000370: 73cf f7bd d024 77bf 0e97 a7bd e14e 7dbd
00000380: 0158 56bd 8684 0a3f d30c a8bd ce9d 5dbd
00000390: a422 b0bc a31d 3bbf 080e 553d baa6 9e3e
000003a0: e14f 613c 2d18 b1bd 9eb5 d2bd ec25 33bd
000003b0: 8508 293f 7c2f e6bd 8a54 44bc c203 92bd
000003c0: 415b 073d d688 de3c a05b 37bf a7aa f33c
000003d0: af6d df3d 3453 81be 2a49 90bd 68d4 cbbd
000003e0: 9435 283d 38d9 10bd 435f 533a fa13 c5be
000003f0: 8269 4d3d 455b 24bd b46f bfbe 2a40 40bd
-0.098504454 0.033774395 -0.6303245 0.17809351 0.22483179 -0.07728945 -0.06760767 -0.090078056
0.020888371 0.029252704 0.03662316 0.017817847 0.03612903 0.09249813 -0.11889315 0.18052346
-0.11213225 1.0985272 0.10090455 0.06326364 -0.11838313 -0.15143347 -0.38695326 -0.07583819
-0.19420579 -0.30227435 -0.33972055 -0.043897416 0.44730496 1.1917675 -0.08971226 0.6364384
-0.12722598 -0.06489446 0.014245231 0.010969652 0.21076538 -0.20876442 -0.123863176 -0.51045376
-0.053978205 -0.05628789 0.2881196 0.080722935 -0.688476 -0.013267994 -0.6306761 -0.09646121
0.041210566 -0.013204076 0.032050718 -0.10252133 -0.6928081 -0.08972866 -0.07945417 -0.055462383
0.66099346 -0.085272096 0.6075997 -0.05291279 -0.3158356 0.014809682 0.23457895 0.36920434
-0.07982856 -0.7150956 -0.172386 -0.355229 -0.2057376 -0.01195226 0.015226155 -0.080758385
0.1580901 -0.07183175 0.040801704 0.17187543 0.4691388 -0.026291296 1.4971029 -0.075987585
-0.12983552 -0.19037123 -0.045270264 0.25498423 -0.13680068 -0.6464356 0.2442859 -0.10395709
-0.029460834 0.008685929 0.048096474 0.14705995 -0.11630146 0.033822592 -0.065526135 -0.02687031
0.059568897 -0.01884419 -0.028569175 0.088206664 -0.002768538 -0.3024118 -0.0671565 0.20247182
-0.037239797 -0.13491738 0.14588524 -0.090299726 0.042685367 0.35989302 -0.16876337 -0.031601977
-0.0056484086 -0.05010084 -0.6349966 -0.2759953 0.033059645 2.0813851 0.0386012 0.055481955
0.35686237 -0.087897524 -0.7740765 0.13584685 -0.016483936 1.2411005 -0.19902422 -0.07384265
0.05764575 0.0079866955 -0.08153798 -0.32504705 -0.13281664 -0.9713368 -0.827185 0.0073288013
0.023087364 0.31158993 1.2588216 -0.4776297 0.14985561 0.727922 0.07067421 -0.07823977
0.0153919635 -0.059234355 0.06259979 -0.5583817 0.030175807 -0.070849836 0.035287224 0.042439025
0.05434478 -0.2824628 -0.56357914 -1.4227344 -0.58016974 -0.102361314 -0.26732156 -0.06270513
-0.53670067 -0.08646634 -0.016677761 -0.11763035 0.15636246 -0.53954434 -0.5548477 -0.10120322
0.0039620283 0.33126068 0.13173683 -0.12087764 0.055210467 -0.06978273 -0.22144854 0.06491221
0.11842522 -0.16716664 -0.10648834 -0.32979283 0.057429966 -0.05067114 0.024125772 -0.40511414
-0.030604774 -0.086469665 -0.087699704 0.049170528 -0.055647593 -0.13136677 -0.07051025 -0.576407
0.08966378 -0.054780357 -0.07417321 -0.08524416 -0.11649545 -0.09096984 -0.41684565 -0.7590128
-0.5125695 -0.06555293 -0.42150527 -0.1114434 -0.07103228 -0.083956555 -0.09157304 -0.05163043
0.2066544 -0.003376032 0.031587675 0.2638748 0.043170523 -0.4806807 -0.03494768 -0.13720642
0.35823536 0.03685866 -0.20261852 0.02492296 -0.12100115 -0.96540546 -0.08183108 -0.061842803
-0.05233002 0.54108465 -0.08205571 -0.054105572 -0.021500893 -0.730921 0.052015334 0.30986577
0.013751955 -0.08647189 -0.10288547 -0.043737337 0.66028625 -0.11239526 -0.011983046 -0.07129623
0.03304601 0.027164858 -0.71624184 0.02974446 0.10909592 -0.2525879 -0.07045205 -0.09952623
0.04106672 -0.035363406 0.00080632063 -0.38491803 0.05014945 -0.040126104 -0.3738991 -0.04693619

model.4.weight f4 [512, 256]
00000000: c10e 5d3c 2e28 56bc b064 10bd fa25 2b3c
00000010: c37d 873c e600 503d 1158 c6bc 85aa 1e3d
00000020: bc0a f63c 64aa 5f3b 7b9c 6ebc 2f27 50bc
00000030: ce1c 55bd 6ef6 7abd aad1 08bd fa18 04bc
00000040: 0515 5a3d d69a 99bd 97c0 513b 6bfa 90ba
00000050: 15b4 533d 5fb4 dcbc 37a4 58bd d6cf 0f3d
00000060: d289 28bd f773 6fbd 4af6 d83b e66d 7d3c
00000070: 65eb a4bc d019 dcbb 18f2 0f3d f416 93bd
00000080: a342 84bd 8434 4bbc 943e 79bd e06f 5e3c
00000090: 0cb6 263c 505b 8bbd 3b6e df3c 0c3d 313d
000000a0: 703e 82bb dfac 4b3d bb88 47bc a59f 85bd
000000b0: 84dd f7bb c36a 56bc 0de7 433d 2e01 f53c
000000c0: 799e 3ebd 519b a338 3e08 b83c afd3 06bc
000000d0: 5c57 e7bb 4441 12bd e3bd ea3b 80c5 1a3a
000000e0: cff4 47bd 61f8 433c 8aaf 333d 5c78 7ebd
000000f0: 7743 28bc 627b ebbb bdb4 26bd 1fb2 56bd
00000100: ebb9 7ebd b7c7 e43c 061c 01bd b113 b3bc
00000110: d0e1 7bbd 96a3 4a3c 5d0d d5bc e8ea 633c
00000120: 8593 d7bb ef9d 43bd 2ce9 a1bc ae00 88bb
00000130: f040 743c 99ce 1abd 86de a2bd 6e9a 2d3d
00000140: 0ba8 4cbd 685b 293d 5a8e 6fbd df37 ccbc
00000150: 2437 563d c070 473b 1cdf 38bd afde 4b3d
00000160: 363c 833b 8d3d b33c f71c 863c 0397 b83b
00000170: 404e 293c 3cd9 2e3d c6ba 62bd 1c03 4f3d
00000180: bcff 0dbd f3ca 0e3d 4787 143d 383c 47bc
00000190: 14fa 5dbd 6a03 c33b dd5b a33b ff5f 19ba
000001a0: a266 bebb 9f6d 5c3d 8c13 05bd 8df6 50bd
000001b0: e4e0 58bd ae02 133d 2c05 36bd d5c1 6b3c
000001c0: 6772 b439 c2d0 6abd 98bb 4cbd b0c4 cc3c
000001d0: 6f42 763c 93be 2fbc 773f aa3c e46d 36bc
000001e0: 22c2 a33b 9e3a 7abd 22e5 71bd 529e 05bc
000001f0: 399a 81bd 1c5a 2cbd aa0c 4c3d 515a 533c
00000200: 35b7 1f3c 00e2 edba 8fc8 28bd 508d f3bc
00000210: 14a0 65bc 6047 bfbb 1a6b 78bd e13c 063d
00000220: 34b5 0ab9 cb46 51bd 42d0 a4bd 3166 a7bc
00000230: cf6f 11bd c74d 2f3c 2794 183b 7eec 2ebd
00000240: 1db3 523d 2ed1 c5bb 59ef 45bd b1ea 6cbd
00000250: 9d5a dabc 1474 fcbb e128 e2bc a1de cf3c
00000260: f4a1 5ebd 8cdb a7bc 0aa9 1fbb 3291 14bd
00000270: 03a4 17bb e051 6bbc 4341 04bd 716a 22bd
00000280: 1530 783c 5bbd 6ebd b9a7 513c 5626 0fbc
00000290: d1a7 20bd ecff a93c a4e4 36bd 1521 203d
000002a0: fb9b 61bd 22fe 1bbd 8978 ebbc e68e 563d
000002b0: 8655 43bd ef52 abbb 4b52 27bb 029a debb
000002c0: 6458 c1bc e876 57bc 83a6 f83c 06a6 273d
000002d0: ae6f 74bd 80ba 6cbd aea8 6dbd f702 2f3d
000002e0: 0037 273c 601c a7bc cb6c 243d 30db 5fbd
000002f0: a523 a5bc 7daa 5cbd 5ac1 e2bb bcdc cfbb
00000300: 011f 553d 30ee 28bd e10a 8c3c 0f4f fdbc
00000310: c91d 463c 1ad6 353d 9e8d f13c fb10 2a3b
00000320: 9ff8 9b3c 8421 cd3c f53c 263d 7be7 193b
00000330: 643e 7ebd b861 69bd 4ec2 383d e853 223d
00000340: 5da2 eebc 3789 e6bc f92c 233d 809d 503a
00000350: cef5 97bc 5037 91bc 0e8b 52bd 02b8 87bd
00000360: eb1e fdbc ffc1 7abd e7ea 04bd 2e83 0f3d
00000370: 2972 273c ac8c b33c 393a ae3c 05ea 9d3c
00000380: 8d04 42bd 9511 2c3c 9cbf 25bd 2758 c53b
00000390: a20c 9b3c 3e64 95bd 3e05 63bc ea39 89bd
000003a0: 7b0e e03c 6eb8 82bc 1131 f8bb a58e babb
000003b0: 1e33 17bc 4070 17bc 58fc 09bc c457 3c3d
000003c0: 6fda 8abc 964a 253d 5b40 84bd 2b6a 0dbd
000003d0: 57b8 0abc a98a 80bd 9569 68bd 408d cbbb
000003e0: 7613 fb3c 56e9 b4bc 6723 c33c 77c9 64bd
000003f0: f090 4ebc dbd5 60bd ad58 c63c deb4 973c
0.013492287 -0.013071103 -0.035252273 0.010446066 0.01653946 0.050782107 -0.024211915 0.03873684
0.030034415 0.003412866 -0.014563675 -0.012704655 -0.052029423 -0.06127017 -0.033403076 -0.0080625955
0.053242702 -0.07500236 0.0032005662 -0.0011060958 0.05168541 -0.026941476 -0.052890982 0.035110317
-0.04114706 -0.058460202 0.006621157 0.015468096 -0.020131776 -0.0067169443 0.035142988 -0.07182112
-0.064580224 -0.012402657 -0.060850695 0.013576478 0.010175239 -0.06804526 0.027274242 0.04327111
-0.0039747283 0.04972541 -0.012178595 -0.065245904 -0.0075642485 -0.013086977 0.04782777 0.02990779
-0.04653785 7.8013756e-05 0.022464868 -0.00822918 -0.0070599746 -0.035706773 0.0071637495 0.00059040636
-0.048817452 0.011961074 0.04386858 -0.062126502 -0.010269991 -0.0071863392 -0.04069971 -0.052415963
-0.062189024 0.027927263 -0.031520866 -0.021859976 -0.06149465 0.0123681035 -0.026007349 0.0139109865
-0.006578865 -0.04775804 -0.019764505 -0.0041504717 0.01490806 -0.037794683 -0.07952599 0.042383604
-0.049964946 0.041346937 -0.058485366 -0.024928985 0.05229868 0.0030432194 -0.04513465 0.049772914
0.0040049804 0.021879936 0.016371233 0.0056332364 0.010333598 0.04268764 -0.055353902 0.050540075
-0.034667715 0.034861516 0.036261823 -0.012160353 -0.05419357 0.0059513347 0.004985316 -0.00058507913
-0.0058105746 0.05381548 -0.032489344 -0.05101638 -0.052948847 0.035891227 -0.044438526 0.014389475
0.00034417512 -0.057327993 -0.04998359 0.024996132 0.015030487 -0.010726589 0.020782216 -0.011134598
0.0049975077 -0.061091058 -0.05905641 -0.008155422 -0.06328244 -0.042078122 0.049816765 0.012899951
0.00974827 -0.0018149018 -0.041206893 -0.029730469 -0.014015216 -0.005837366 -0.060649015 0.032772902
-0.00013228209 -0.051092904 -0.080475345 -0.02043447 -0.03550702 0.010699696 0.0023281665 -0.042706005
0.051440347 -0.006036899 -0.048323963 -0.057841007 -0.026654536 -0.0077042673 -0.027607383 0.025374712
-0.05435367 -0.02049043 -0.002436223 -0.03627128 -0.002313853 -0.014362782 -0.0322888 -0.03965229
0.015148182 -0.058286052 0.012796336 -0.008737167 -0.039222542 0.020751916 -0.044651642 0.03909405
-0.055080395 -0.038084157 -0.028744 0.052382372 -0.047688983 -0.0052283923 -0.0025531228 -0.0067932615
-0.023601718 -0.013150908 0.030352836 0.040929817 -0.05967682 -0.057795048 -0.058022194 0.042727437
0.010205984 -0.020399272 0.040142816 -0.054652393 -0.020158598 -0.053873528 -0.006920022 -0.0063434523
0.05203152 -0.04124278 0.017095031 -0.030921487 0.012092062 0.044393636 0.029486474 0.0025950063
0.01903945 0.025040396 0.040585477 0.002348392 -0.06207122 -0.056977957 0.04510718 0.0396308
-0.029130155 -0.028141601 0.03983781 0.00079580396 -0.018549826 -0.01772657 -0.051402144 -0.066268936
-0.030898532 -0.061220165 -0.032450583 0.035037212 0.010220089 0.021917664 0.021267997 0.019276628
-0.04736762 0.010502239 -0.040465936 0.0060224715 0.018926922 -0.0729451 -0.01385623 -0.06700499
0.027350655 -0.015957084 -0.0075742085 -0.005693274 -0.009228496 -0.009243071 -0.00842198 0.045982137
-0.01694986 0.040354334 -0.06457587 -0.034525078 -0.008466802 -0.06276447 -0.056741316 -0.0062119067
0.030648928 -0.02208392 0.023820592 -0.055856194 -0.012607798 -0.05489145 0.024212206 0.018518861

model.4.bias f4 [512]
00000000: a0ca a5bd 7f8b c23e 016b 5d3c 4e5a 2bbd
00000010: 8ac7 94bd e783 22bf 7bdd 5b3d 9ab6 62bd
00000020: 949b b13d 6ffb 73bd 7574 e23d d3ec f23b
00000030: bd09 d43d a88f ff3c f1c8 68be 7af4 d13d
00000040: 1296 b13d cd2e 253d e7c0 6d3c 9bea c0be
00000050: cf92 c63d b2de 163e 909e 05bd f5be 9cbc
00000060: 8216 40bd 6147 483f efb2 08be c84f 1a3d
00000070: e470 a93c 5c3e b13e dd68 0b3f e1c1 57bd
00000080: 948a 463e 8471 64be 0236 f13d 3ab3 233e
00000090: e583 43be 7394 d13d 15ff 99bd 02f3 d1be
000000a0: 456b c93e e535 e23d fa8c 203e 90d1 74be
000000b0: 9026 aa3d d022 84bd a5c2 c2be e5e1 153e
000000c0: 0e2e bcbb bd51 cfbd d8f2 7d3e 09b4 9ebe
000000d0: ca27 2e3e 5ffc 8d3b 6c01 bbbb 87f9 103e
000000e0: c0d3 cd3d 1013 133e 95fe 86be 4136 09be
000000f0: 2529 46bd d051 ae3d 23a8 9abb 4b64 8f3e
00000100: 8863 9d3d 552f cb3c 09fc c43d 0d75 b73d
00000110: fc5d e03e aa3c bf3d ca3d abbe aae1 2d3e
00000120: bb11 0c3e 6339 2f3c 52dd a7bd bfdb d93e
00000130: 0063 583e be0d b8bc 7c10 c6be f97c f53d
00000140: 363c 2b3c 633e bfbe dfb1 7aba 8cf7 4cbc
00000150: b9a2 0cbe 3abf 893e 97df adbe b9e6 e7be
00000160: 1489 54be 56ff 983d 430b 96bd 4579 343d
00000170: 1e85 e13c 2f3d c93e 0fcc 8cbd f523 cb3d
00000180: 70ac 88bd e6c6 28be 7ba3 f0bc 340d 0abe
00000190: 1a8f 3bbe 84e1 ff3c ae97 0cbc 151f 9ebd
000001a0: 3358 9f3e d5b2 b33c 2c3c 8fbd b4fc 013e
000001b0: 037b d33d bce7 29bd 02c9 2b3d 2c5b 593d
000001c0: 099b bbbd 7e74 0cbe d2e1 42bd cfa9 713e
000001d0: 3c00 0e3e e5b1 c0bc 6313 45be 48e5 39bd
000001e0: 44d8 be3e b6f1 4b3e 57ab 1d3f bdda 2e3d
000001f0: 887c d33d c749 76bd cc32 99be c4b3 db3c
00000200: 125c 76bc 093f febd 6d97 1bbe 0811 103e
00000210: 681d 2a3c 0f06 5cbe 87cd 2b3e bbe9 6ebd
00000220: 2be8 6a3d 5c8f a1be 6232 133e e8ba 0bbf
00000230: 64f1 853e a55d 91be 0f09 89be 218a acbd
00000240: 5709 cebe 3c0a 993d cb88 06bd 88b1 f7be
00000250: ab7c 1abd 9082 2abd 6efa c33d 5fae dd3d
00000260: 4e9d 8dbd 0a89 83be af92 b0bc e1a2 eabe
00000270: d752 af3e 2e89 163d 31b0 233c 1244 9abd
00000280: 9ba7 49bd e2cd 5cbe d2fd 123d 29ce ad3e
00000290: 58f5 623b 7486 d9bd 4ef0 44be 8267 28be
000002a0: b400 1fbe 9c54 433e 8c9c 813e 6037 f23e
000002b0: 704b dabe 8679 f33d a56f e2bd 44db 2a3d
000002c0: ddd2 953e 7903 a83d 532e 9c3d 82ab 3fbe
000002d0: 43b2 5d3f 20e7 fd3d 3e9f 873e 8637 a4bb
000002e0: 30c9 edbd 5cd0 0fbf 5b0b a1bd d5cd 2e3d
000002f0: 76aa ddbe db73 81bc a3f8 8dbe abde 1abe
00000300: 04b2 85be d9d6 9abd 7f8c 9abd a975 f2bd
00000310: 1ce4 51bd a5cc 5dbe fd41 aebe 1798 96be
00000320: bb3a 82be 3980 1b3e d143 883e 93f9 673e
00000330: 4c68 08bd ddea 2f3e 446d ec3d 53fc b33c
00000340: 2acc 263e 5137 a93d c5b0 05be ec3b 8c3c
00000350: 34c0 54bc c378 913a 24c0 2a3e 1ad6 3abf
00000360: d032 52bd b1a2 03be 9fe8 fc3c 3352 f5bd
00000370: 033c d73d 3ee2 c1bd bf51 88be 2eea acbd
00000380: 13af 7cbd 02af d6bd 2526 4cbe e796 383e
00000390: b7c1 2b3d 4e59 593e 0cc4 62bd 5a78 3bbd
000003a0: fb47 093e dfaa fa3d 7d4f 253e 277f 02be
000003b0: 6919 efbb 48ca 303d 365f 343e 99d2 803e
000003c0: f380 3dbd dbb4 0b3e 42a9 4fbd e176 8fbd
000003d0: f920 d4bd 33d8 0f3e 16dc ebbe 236c debc
000003e0: ffd5 d8bd c8b6 d4bd 2010 8ebd ab72 423e
000003f0: 2ecc 9d3e 0c0d 543e 5748 81bd 5b61 82be
-0.08095288 0.37997052 0.013514281 -0.041834168 -0.072646216 -0.63482517 0.053678017 -0.055349924
0.08672252 -0.059565958 0.11057369 0.0074134856 0.1035342 0.03119643 -0.22732903 0.10251708
0.08671202 0.040327836 0.0145113235 -0.3767899 0.0969597 0.14733389 -0.03262192 -0.019134024
-0.046896465 0.78233916 -0.13349508 0.03767374 0.020683713 0.3461789 0.54456884 -0.05267513
0.19388801 -0.22308928 0.11777879 0.15986338 -0.19093283 0.102333926 -0.07519356 -0.41005713
0.39339653 0.11045436 0.15678778 -0.23908067 0.083081365 -0.064519525 -0.38039127 0.14636953
-0.005742795 -0.10123012 0.24799669 -0.3099673 0.17007366 0.0043330635 -0.0057069566 0.14157687
0.10050154 0.1436274 -0.26366106 -0.13399602 -0.048379082 0.08511698 -0.0047197505 0.28006205
0.07685 0.024802843 0.096183844 0.089578725 0.43821704 0.093377426 -0.3344558 0.16980615
0.13678639 0.010694834 -0.081965104 0.42550465 0.21131516 -0.02246749 -0.38684452 0.11986727
0.010451367 -0.37352285 -0.0009563248 -0.012510192 -0.13733949 0.26903707 -0.33959648 -0.45293215
-0.20755416 0.074705765 -0.07326367 0.044060964 0.027529296 0.39304492 -0.068748586 0.09918968
-0.06673515 -0.16482124 -0.029374829 -0.13481599 -0.18316308 0.031235464 -0.008581085 -0.07720772
0.31121978 0.02193586 -0.06993899 0.12694055 0.10326197 -0.041480765 0.041939743 0.053065464
-0.0916043 -0.13716313 -0.04757864 0.23599933 0.13867277 -0.023522327 -0.19245677 -0.045384675
0.37274373 0.19916424 0.6158957 0.042689074 0.10326487 -0.060128953 -0.29921567 0.026819117
-0.0150366 -0.12414367 -0.15194483 0.14068997 0.010382988 -0.21486686 0.16777621 -0.05832837
0.05735032 -0.31554687 0.14374688 -0.5458207 0.2616073 -0.28391758 -0.26764724 -0.084247835
-0.402415 0.07472655 -0.0328453 -0.48377633 -0.03771655 -0.04162842 0.0956925 0.10824274
-0.06914769 -0.2569049 -0.02155432 -0.45827392 0.3424289 0.03675192 0.009990738 -0.07532515
-0.049232107 -0.21562913 0.035886593 0.3394635 0.00346311 -0.10621348 -0.19232294 -0.16445735
-0.15527612 0.19075245 0.25314748 0.47307873 -0.4263568 0.11888413 -0.11056451 0.041713014
0.29262438 0.08203787 0.07626023 -0.18717769 0.8660013 0.12397599 0.2648868 -0.0050115017
-0.11610639 -0.56177306 -0.07863494 0.042676765 -0.43294114 -0.015802315 -0.27728757 -0.15124004
-0.26112378 -0.0756051 -0.07546329 -0.11838848 -0.051242933 -0.21660097 -0.3403472 -0.2941291
-0.25435433 0.15185632 0.2661424 0.22653799 -0.03330259 0.17179437 0.11544278 0.021970904
0.1628882 0.08262504 -0.13055713 0.017118417 -0.012985278 0.0011098612 0.16674858 -0.72982943
-0.05131799 -0.1285503 0.030872641 -0.11978569 0.10509493 -0.094669804 -0.26624867 -0.08443104
-0.0616904 -0.10482599 -0.19936426 0.18026315 0.041932788 0.21225473 -0.055362746 -0.045769073
0.13406365 0.12239622 0.16143604 -0.12743817 -0.0072967303 0.04316166 0.17614445 0.25160673
-0.046265554 0.1364321 -0.050698526 -0.07005096 -0.103578515 0.14047317 -0.4606635 -0.027151173
-0.105876915 -0.10386425 -0.06936669 0.18989055 0.3081984 0.20708102 -0.06312626 -0.254649

model.6.weight f4 [42, 512]
00000000: 74d2 66bb 68e3 3f3e c7af 27bf 3e90 793f
00000010: 4954 1abf 83af c0bf cb73 1d3d 42d9 aa3b
00000020: 7a71 22bf 7f94 543d 48c6 d9be 1198 abbe
00000030: e271 523f 96c7 39be 7fc7 183e a6c2 cebd
00000040: 7c94 813e 86ce 5bc0 5747 1abe 9ad7 15be
00000050: 9a71 ca3e 2b23 28c0 8d42 b93f 7c70 c6be
00000060: 151a 2c3c c4d0 83be 3ec2 3b3d 8356 afbe
00000070: 7cb2 b1c0 1e57 1dbd 154f 91bf 6009 e8c0
00000080: 008c e93d 325a e6bc 2691 8abf 8334 d33e
00000090: 99ce d7be 7def 0cc0 c37d 0dbc 2782 20c0
000000a0: 9f9b 38be 83cd e53d 5037 d63e c875 f33e
000000b0: 1c89 d0be e8f8 893e 10b7 9bbf fcb4 a23e
000000c0: e0b9 46bd 7907 07c0 541a 2a3f 6f97 4f3e
000000d0: 7ed7 24be c555 ea3d 3974 083f 3d51 df3e
000000e0: a07a b93d 8fc4 acbf 78cb 0c3d b1c6 a13f
000000f0: 7ce4 39bd 728d 88be 427d d4be 37ca 6ebf
00000100: 3fa6 813d 7622 42bc 4835 8abe 8e2c d4be
00000110: 4a65 443e 9ed0 833e 6cfd 2c3e 552c 5fbe
00000120: 6699 c2bc 43b6 f5c0 2034 d53b 09d5 683f
00000130: 4fb4 a3bf 1a21 3c3d a569 f23f b79a 0ac0
00000140: 6842 00bd 78b6 9dbe a6eb ae3e 9df5 9e3d
00000150: 66b2 263e 6a4e 5d3e a5da 4c3e 7baf 843e
00000160: f26f 95be f226 20c0 4392 213e 4ec6 9cbd
00000170: 051f 1d3e ad73 7dbe 0259 933e bd62 a2be
00000180: d992 0c3e 599b 92be df9e 80bd ef4a d6be
00000190: 0a42 47bf d0ec 813e 5e0d 88c0 f892 66be
000001a0: ab1d 2a3f 1018 4b3f 7e0c ac3d 41e1 32bd
000001b0: f941 17be 1593 a53d 5cac 193e 9916 08bf
000001c0: d730 a73b 6bc5 f23e e43c 01c1 cf78 4cbe
000001d0: 96bd 88bf 9620 0d3f 1281 dbbe 3ac0 a43f
000001e0: 9d16 07bf fcbf aa3d a7ea 91bd 9583 293d
000001f0: 1300 eb3f 1935 74bf 9c9a 2abf f80f 8cc0
00000200: bf2a a3bd af13 86bd 1a5b 30be 66e7 31be
00000210: a36d 263c 7aa3 86be ce81 3abf bb7a b4bd
00000220: 9478 8dc0 6c72 583e ac97 cdbc 1df4 c93d
00000230: ee4a 90bd f25b dbbd c730 b53e b67b 883d
00000240: d390 19c1 51a9 54bd e81f 023e 6dbf ccbe
00000250: ee7d 85be 7c64 fb3d 4272 ecbe 44de bbbf
00000260: c7f2 41c0 3558 25bc 2487 5c3f b092 0abe
00000270: b0d2 203e 92de 1cc0 07f7 14be 7444 073f
00000280: 7414 c03f 09b2 bb3d 1d32 1fbf e8db af3e
00000290: 2abe 4f3f 9260 0f3e a6d2 0cba 9a96 ed3e
000002a0: 0ff0 5e3e 7051 b23f bc4a ac3e 705c 393d
000002b0: b295 eebe 9540 bfbd b418 99be b0f9 95be
000002c0: 5b19 823f fb90 23be 17b2 07bd ced8 1e3e
000002d0: cd38 01bf 3eb0 68bf c8e7 5d3e ec6c 35c1
000002e0: 8a3d 80bd e2ec fdbd 2e93 bf3c c73f c2be
000002f0: 132e 41bd b6f1 1440 5587 f1be 804d 0e3f
00000300: b5f5 b6ba 999f 483d a7e1 3b3e e4b2 7fbd
00000310: 863a c5be c307 e23f b43a 2abf bd1a 31bb
00000320: a866 323e 43f9 0dbe 2464 583f c4e9 a93e
00000330: a90f babc 29f5 59c0 d655 083e 1e6f 233e
00000340: 7002 363f a3d2 dac0 633a 6cbd f5c2 82bf
00000350: d3db 00c0 05d7 23bb cd00 23c0 1a1d f73e
00000360: 7943 9bbe 9fc4 05bf edb6 a13f fc3e 1b3f
00000370: 0e66 b13e e4f9 c83d 352b 06bd 2ea8 203e
00000380: 68e6 85be 39ff 56bd edb4 32bf 0789 6a3f
00000390: 1c27 70bf 153d f3bc 2697 d83e f2f8 89bd
000003a0: 8503 0ac0 b726 fb3e 8fa6 023f f04f 8ebe
000003b0: 87c6 28bf b905 313e 67a6 793e 06dc a43e
000003c0: 53b1 47be 4d58 a53f 55d4 ac3e bf8e 2abe
000003d0: b3d8 dcbe 8717 b63f 3548 59c0 5923 21bc
000003e0: 459a b13d 0e0c 8d3f 57a9 0bbe 58ae a93f
000003f0: 2255 68be a086 94bc 154e 293e 7621 edbe
-0.0035220655 0.18739092 -0.6550259 0.9748572 -0.6028486 -1.5053562 0.038440507 0.0052138874
-0.634544 0.05189943 -0.4253409 -0.33514455 0.8220502 -0.18142542 0.14919852 -0.1009572
0.25308597 -3.4344802 -0.15066276 -0.14633027 0.39539796 -2.6271465 1.4473435 -0.38757694
0.010504265 -0.25745213 0.04583954 -0.3424569 -5.5530376 -0.03841316 -1.1352259 -7.2511444
0.11403656 -0.02811918 -1.0825546 0.41251 -0.4214981 -2.2021172 -0.008635941 -2.5079439
-0.18028115 0.11220839 0.41839075 0.47550797 -0.40729606 0.26947713 -1.2165241 0.31778705
-0.048517108 -2.109831 0.66446424 0.20272611 -0.16097829 0.114421405 0.5330234 0.43616667
0.09056592 -1.3497485 0.03437373 1.2638761 -0.045383915 -0.26670414 -0.41501814 -0.93277305
0.06330537 -0.011849036 -0.26993775 -0.41440243 0.19179264 0.257451 0.16893548 -0.21794255
-0.023754787 -7.6784987 0.006506458 0.90950066 -1.2789401 0.045930006 1.893849 -2.165693
-0.03131333 -0.30803275 0.3416416 0.07761691 0.16278991 0.21611944 0.20005281 0.2591513
-0.2918697 -2.502377 0.1577845 -0.07655011 0.15343864 -0.24751158 0.28778845 -0.31715956
0.13727893 -0.28634146 -0.06280302 -0.41854045 -0.7783514 0.25375986 -4.2516317 -0.22517002
0.6645152 0.7933359 0.0840082 -0.04367185 -0.1477126 0.08084694 0.15007156 -0.5315948
0.0051022577 0.47416243 -8.077366 -0.1996796 -1.0682857 0.5512785 -0.4287191 1.2871163
-0.5276888 0.08337399 -0.071248345 0.041385252 1.8359398 -0.9539352 -0.66642165 -4.3769493
-0.079671375 -0.06546723 -0.17222252 -0.17373428 0.010157975 -0.26296598 -0.72854316 -0.088124715
-4.420969 0.21137398 -0.025096737 0.09861014 -0.07045542 -0.107108966 0.35388777 0.06664221
-9.597857 -0.051919285 0.12707484 -0.39989796 -0.2607264 0.12275025 -0.46180922 -1.4677205
-3.030443 -0.010091831 0.8614371 -0.1353252 0.15705371 -2.4510846 -0.14547358 0.52838826
1.5006242 0.09164817 -0.6218584 0.34347463 0.8114954 0.14001682 -0.0005371965 0.46403962
0.21771263 1.3931103 0.33650768 0.04525417 -0.46598583 -0.0933849 -0.2990166 -0.2929206
1.0163988 -0.15973274 -0.033128824 0.15512392 -0.50477296 -0.90893924 0.21670449 -11.339092
-0.06261738 -0.123986974 0.02338561 -0.37939283 -0.04716308 2.3272529 -0.47173563 0.55587006
-0.0013958724 0.04898033 0.18347798 -0.062426463 -0.38521212 1.7658619 -0.66495824 -0.0027023994
0.17421973 -0.13864617 0.845278 0.33186162 -0.022712545 -3.4055884 0.13313994 0.15960357
0.7109747 -6.8382125 -0.05767287 -1.0215746 -2.013417 -0.0024999988 -2.5469239 0.4826439
-0.30324915 -0.52253145 1.263395 0.6064298 0.34648174 0.09813288 -0.03275605 0.15689155
-0.2615235 -0.052489493 -0.6980732 0.9161534 -0.93809676 -0.029692212 0.42302817 -0.06736936
-2.1564648 0.49052975 0.510354 -0.27795362 -0.6592793 0.1728734 0.24379884 0.32199115
-0.19501238 1.2917572 0.33755746 -0.16656016 -0.43134078 1.422593 -3.3950322 -0.009835088
0.08672003 1.1019304 -0.13638817 1.325633 -0.22688726 -0.0181306 0.16533692 -0.4631459

model.6.bias f4 [42]
00000000: 1930 a0bf e2af 703f f918 18bf 8881 e43b
00000010: 8414 e6bf e24a 92bf 77f7 11c0 b6fb c9bf
00000020: 9292 cabe 2ded 06bf f5d0 71bf 1126 58bf
00000030: 6f03 dabc bf54 b9bf c975 9abf ba5a 55bf
00000040: 1f93 7dbf 2c96 1fbf ef64 82bf 1b77 503f
00000050: d6e4 dabe c77f ba3e 93c1 cf3e 9d3b 4bbe
00000060: aea7 98bf 9f2d 9fbf 2c74 68bf edff a2be
00000070: 2d19 9abf 8ef1 e3bf 5356 87be ed29 eabe
00000080: ea3b c0be 76aa 82be 3f69 1d3e b40c c5be
00000090: aff8 94bf db4d 06bf d90d 8dbf d487 94be
000000a0: a5a2 63be 4582 d4bf
-1.2514678 0.94018376 -0.59413105 0.006973449 -1.7975011 -1.1429102 -2.280729 -1.5779941
-0.3956495 -0.5270565 -0.9445947 -0.84433085 -0.026612965 -1.4478987 -1.2067195 -0.8334156
-0.99052614 -0.6233852 -1.0187052 0.8143174 -0.42752713 0.3642561 0.40577373 -0.1984696
-1.1926172 -1.2435797 -0.90802264 -0.3183588 -1.2038933 -1.7808092 -0.26433048 -0.45735112
-0.3754571 -0.25520676 0.1537218 -0.38486254 -1.1638392 -0.5246255 -1.1019851 -0.2900988
-0.22230013 -1.6602255
